…
I0330 10:57:47.966892  2266 net.cpp:49] Initializing net from parameters: 
name: "FaceNet"
state {
  phase: TRAIN
}
layer {
  name: "data"
  type: "HDF5Data"
  top: "data"
  top: "eye_visibility_left"
  top: "eye_visibility_right"
  top: "nose_visibility"
  top: "mouth_visibility_left"
  top: "mouth_visibility_right"
  top: "smile"
  top: "glasses"
  include {
    phase: TRAIN
  }
  hdf5_data_param {
    source: "/home/wzleong/Downloads/MTFL/train_scaled_mean_subtracted_own_data_multiple_label_data_list.txt"
    batch_size: 128
    shuffle: true
  }
}
layer {
  name: "conv1"
  type: "Convolution"
  bottom: "data"
  top: "conv1"
  param {
    lr_mult: 1
    decay_mult: 1
  }
  param {
    lr_mult: 2
    decay_mult: 0
  }
  convolution_param {
    num_output: 64
    pad: 0
    kernel_size: 9
    stride: 2
    weight_filler {
      type: "xavier"
    }
    bias_filler {
      type: "constant"
    }
  }
}
layer {
  name: "relu1"
  type: "ReLU"
  bottom: "conv1"
  top: "conv1"
}
layer {
  name: "pool1"
  type: "Pooling"
  bottom: "conv1"
  top: "pool1"
  pooling_param {
    pool: MAX
    kernel_size: 2
    stride: 2
  }
}
layer {
  name: "conv2_squeeze"
  type: "Convolution"
  bottom: "pool1"
  top: "conv2_squeeze"
  param {
    lr_mult: 1
    decay_mult: 1
  }
  param {
    lr_mult: 2
    decay_mult: 0
  }
  convolution_param {
    num_output: 32
    pad: 0
    kernel_size: 1
    stride: 1
    weight_filler {
      type: "xavier"
    }
    bias_filler {
      type: "constant"
    }
  }
}
layer {
  name: "relu2_squeeze"
  type: "ReLU"
  bottom: "conv2_squeeze"
  top: "conv2_squeeze"
}
layer {
  name: "conv2_1"
  type: "Convolution"
  bottom: "conv2_squeeze"
  top: "conv2_1"
  param {
    lr_mult: 1
    decay_mult: 1
  }
  param {
    lr_mult: 2
    decay_mult: 0
  }
  convolution_param {
    num_output: 32
    pad: 1
    kernel_size: 3
    stride: 1
    weight_filler {
      type: "xavier"
    }
    bias_filler {
      type: "constant"
    }
  }
}
layer {
  name: "relu2_1"
  type: "ReLU"
  bottom: "conv2_1"
  top: "conv2_1"
}
layer {
  name: "conv2_2"
  type: "Convolution"
  bottom: "conv2_1"
  top: "conv2_2"
  param {
    lr_mult: 1
    decay_mult: 1
  }
  param {
    lr_mult: 2
    decay_mult: 0
  }
  convolution_param {
    num_output: 32
    pad: 1
    kernel_size: 3
    stride: 1
    weight_filler {
      type: "xavier"
    }
    bias_filler {
      type: "constant"
    }
  }
}
layer {
  name: "relu2_2"
  type: "ReLU"
  bottom: "conv2_2"
  top: "conv2_2"
}
layer {
  name: "conv2_3"
  type: "Convolution"
  bottom: "conv2_2"
  top: "conv2_3"
  param {
    lr_mult: 1
    decay_mult: 1
  }
  param {
    lr_mult: 2
    decay_mult: 0
  }
  convolution_param {
    num_output: 32
    pad: 1
    kernel_size: 3
    stride: 1
    weight_filler {
      type: "xavier"
    }
    bias_filler {
      type: "constant"
    }
  }
}
layer {
  name: "relu2_3"
  type: "ReLU"
  bottom: "conv2_3"
  top: "conv2_3"
}
layer {
  name: "conv2_4"
  type: "Convolution"
  bottom: "conv2_3"
  top: "conv2_4"
  param {
    lr_mult: 1
    decay_mult: 1
  }
  param {
    lr_mult: 2
    decay_mult: 0
  }
  convolution_param {
    num_output: 64
    pad: 1
    kernel_size: 3
    stride: 1
    weight_filler {
      type: "xavier"
    }
    bias_filler {
      type: "constant"
    }
  }
}
layer {
  name: "relu2_4"
  type: "ReLU"
  bottom: "conv2_4"
  top: "conv2_4"
}
layer {
  name: "conv2_sub"
  type: "Convolution"
  bottom: "conv2_squeeze"
  top: "conv2_sub"
  param {
    lr_mult: 1
    decay_mult: 1
  }
  param {
    lr_mult: 2
    decay_mult: 0
  }
  convolution_param {
    num_output: 64
    pad: 4
    kernel_size: 3
    stride: 1
    weight_filler {
      type: "xavier"
    }
    bias_filler {
      type: "constant"
    }
    dilation: 4
  }
}
layer {
  name: "relu2_sub"
  type: "ReLU"
  bottom: "conv2_sub"
  top: "conv2_sub"
}
layer {
  name: "concat_conv2"
  type: "Concat"
  bottom: "conv2_sub"
  bottom: "conv2_4"
  top: "concat_conv2"
  concat_param {
    axis: 1
  }
}
layer {
  name: "pool2"
  type: "Pooling"
  bottom: "concat_conv2"
  top: "pool2"
  pooling_param {
    pool: MAX
    kernel_size: 2
    stride: 2
  }
}
layer {
  name: "conv3_squeeze"
  type: "Convolution"
  bottom: "pool2"
  top: "conv3_squeeze"
  param {
    lr_mult: 1
    decay_mult: 1
  }
  param {
    lr_mult: 2
    decay_mult: 0
  }
  convolution_param {
    num_output: 64
    pad: 0
    kernel_size: 1
    stride: 1
    weight_filler {
      type: "xavier"
    }
    bias_filler {
      type: "constant"
    }
  }
}
layer {
  name: "relu3_squeeze"
  type: "ReLU"
  bottom: "conv3_squeeze"
  top: "conv3_squeeze"
}
layer {
  name: "conv3_1"
  type: "Convolution"
  bottom: "conv3_squeeze"
  top: "conv3_1"
  param {
    lr_mult: 1
    decay_mult: 1
  }
  param {
    lr_mult: 2
    decay_mult: 0
  }
  convolution_param {
    num_output: 64
    pad: 1
    kernel_size: 3
    stride: 1
    weight_filler {
      type: "xavier"
    }
    bias_filler {
      type: "constant"
    }
  }
}
layer {
  name: "relu3_1"
  type: "ReLU"
  bottom: "conv3_1"
  top: "conv3_1"
}
layer {
  name: "conv3_2"
  type: "Convolution"
  bottom: "conv3_1"
  top: "conv3_2"
  param {
    lr_mult: 1
    decay_mult: 1
  }
  param {
    lr_mult: 2
    decay_mult: 0
  }
  convolution_param {
    num_output: 64
    pad: 1
    kernel_size: 3
    stride: 1
    weight_filler {
      type: "xavier"
    }
    bias_filler {
      type: "constant"
    }
  }
}
layer {
  name: "relu3_2"
  type: "ReLU"
  bottom: "conv3_2"
  top: "conv3_2"
}
layer {
  name: "conv3_sub"
  type: "Convolution"
  bottom: "conv3_squeeze"
  top: "conv3_sub"
  param {
    lr_mult: 1
    decay_mult: 1
  }
  param {
    lr_mult: 2
    decay_mult: 0
  }
  convolution_param {
    num_output: 64
    pad: 2
    kernel_size: 3
    stride: 1
    weight_filler {
      type: "xavier"
    }
    bias_filler {
      type: "constant"
    }
    dilation: 2
  }
}
layer {
  name: "relu3_sub"
  type: "ReLU"
  bottom: "conv3_sub"
  top: "conv3_sub"
}
layer {
  name: "concat_conv3"
  type: "Concat"
  bottom: "conv3_sub"
  bottom: "conv3_2"
  top: "concat_conv3"
  concat_param {
    axis: 1
  }
}
layer {
  name: "pool3"
  type: "Pooling"
  bottom: "concat_conv3"
  top: "pool3"
  pooling_param {
    pool: MAX
    kernel_size: 2
    stride: 2
  }
}
layer {
  name: "conv4_squeeze"
  type: "Convolution"
  bottom: "pool3"
  top: "conv4_squeeze"
  param {
    lr_mult: 1
    decay_mult: 1
  }
  param {
    lr_mult: 2
    decay_mult: 0
  }
  convolution_param {
    num_output: 64
    pad: 0
    kernel_size: 1
    stride: 1
    weight_filler {
      type: "xavier"
    }
    bias_filler {
      type: "constant"
    }
  }
}
layer {
  name: "relu4_squeeze"
  type: "ReLU"
  bottom: "conv4_squeeze"
  top: "conv4_squeeze"
}
layer {
  name: "conv4_1"
  type: "Convolution"
  bottom: "conv4_squeeze"
  top: "conv4_1"
  param {
    lr_mult: 1
    decay_mult: 1
  }
  param {
    lr_mult: 2
    decay_mult: 0
  }
  convolution_param {
    num_output: 128
    pad: 0
    kernel_size: 3
    stride: 1
    weight_filler {
      type: "xavier"
    }
    bias_filler {
      type: "constant"
    }
  }
}
layer {
  name: "relu4_1"
  type: "ReLU"
  bottom: "conv4_1"
  top: "conv4_1"
}
layer {
  name: "conv4_2"
  type: "Convolution"
  bottom: "conv4_1"
  top: "conv4_2"
  param {
    lr_mult: 1
    decay_mult: 1
  }
  param {
    lr_mult: 2
    decay_mult: 0
  }
  convolution_param {
    num_output: 128
    pad: 0
    kernel_size: 3
    stride: 1
    weight_filler {
      type: "xavier"
    }
    bias_filler {
      type: "constant"
    }
  }
}
layer {
  name: "relu4_2"
  type: "ReLU"
  bottom: "conv4_2"
  top: "conv4_2"
}
layer {
  name: "conv4_3"
  type: "Convolution"
  bottom: "conv4_2"
  top: "conv4_3"
  param {
    lr_mult: 1
    decay_mult: 1
  }
  param {
    lr_mult: 2
    decay_mult: 0
  }
  convolution_param {
    num_output: 256
    pad: 0
    kernel_size: 3
    stride: 1
    weight_filler {
      type: "xavier"
    }
    bias_filler {
      type: "constant"
    }
  }
}
layer {
  name: "relu4_3"
  type: "ReLU"
  bottom: "conv4_3"
  top: "conv4_3"
}
layer {
  name: "conv5"
  type: "Convolution"
  bottom: "conv4_3"
  top: "conv5"
  param {
    lr_mult: 1
    decay_mult: 1
  }
  param {
    lr_mult: 2
    decay_mult: 0
  }
  convolution_param {
    num_output: 512
    pad: 0
    kernel_size: 1
    stride: 1
    weight_filler {
      type: "xavier"
    }
    bias_filler {
      type: "constant"
    }
  }
}
layer {
  name: "relu5"
  type: "ReLU"
  bottom: "conv5"
  top: "conv5"
}
layer {
  name: "fc1_left_eye_confidence"
  type: "InnerProduct"
  bottom: "conv5"
  top: "fc1_left_eye_confidence"
  param {
    lr_mult: 1
    decay_mult: 1
  }
  param {
    lr_mult: 2
    decay_mult: 0
  }
  inner_product_param {
    num_output: 256
    weight_filler {
      type: "xavier"
    }
    bias_filler {
      type: "constant"
      value: 0.1
    }
  }
}
layer {
  name: "relu_left_eye_confidence"
  type: "ReLU"
  bottom: "fc1_left_eye_confidence"
  top: "fc1_left_eye_confidence"
}
layer {
  name: "drop1_left_eye_confidence"
  type: "Dropout"
  bottom: "fc1_left_eye_confidence"
  top: "fc1_left_eye_confidence"
  dropout_param {
    dropout_ratio: 0.5
  }
}
layer {
  name: "fc2_left_eye_confidence"
  type: "InnerProduct"
  bottom: "fc1_left_eye_confidence"
  top: "fc2_left_eye_confidence"
  param {
    lr_mult: 1
    decay_mult: 1
  }
  param {
    lr_mult: 2
    decay_mult: 0
  }
  inner_product_param {
    num_output: 1
    weight_filler {
      type: "gaussian"
      std: 0.5
    }
    bias_filler {
      type: "constant"
      value: 0.5
    }
  }
}
layer {
  name: "loss_left_eye_confidence"
  type: "EuclideanLoss"
  bottom: "fc2_left_eye_confidence"
  bottom: "eye_visibility_left"
  top: "loss_left_eye_confidence"
}
layer {
  name: "fc1_right_eye_confidence"
  type: "InnerProduct"
  bottom: "conv5"
  top: "fc1_right_eye_confidence"
  param {
    lr_mult: 1
    decay_mult: 1
  }
  param {
    lr_mult: 2
    decay_mult: 0
  }
  inner_product_param {
    num_output: 256
    weight_filler {
      type: "xavier"
    }
    bias_filler {
      type: "constant"
      value: 0.1
    }
  }
}
layer {
  name: "relu_right_eye_confidence"
  type: "ReLU"
  bottom: "fc1_right_eye_confidence"
  top: "fc1_right_eye_confidence"
}
layer {
  name: "drop1_right_eye_confidence"
  type: "Dropout"
  bottom: "fc1_right_eye_confidence"
  top: "fc1_right_eye_confidence"
  dropout_param {
    dropout_ratio: 0.5
  }
}
layer {
  name: "fc2_right_eye_confidence"
  type: "InnerProduct"
  bottom: "fc1_right_eye_confidence"
  top: "fc2_right_eye_confidence"
  param {
    lr_mult: 1
    decay_mult: 1
  }
  param {
    lr_mult: 2
    decay_mult: 0
  }
  inner_product_param {
    num_output: 1
    weight_filler {
      type: "gaussian"
      std: 0.5
    }
    bias_filler {
      type: "constant"
      value: 0.5
    }
  }
}
layer {
  name: "loss_right_eye_confidence"
  type: "EuclideanLoss"
  bottom: "fc2_right_eye_confidence"
  bottom: "eye_visibility_right"
  top: "loss_right_eye_confidence"
}
layer {
  name: "fc1_glasses"
  type: "InnerProduct"
  bottom: "conv5"
  top: "fc1_glasses"
  param {
    lr_mult: 1
    decay_mult: 1
  }
  param {
    lr_mult: 2
    decay_mult: 0
  }
  inner_product_param {
    num_output: 256
    weight_filler {
      type: "xavier"
    }
    bias_filler {
      type: "constant"
      value: 0.1
    }
  }
}
layer {
  name: "relu_glasses"
  type: "ReLU"
  bottom: "fc1_glasses"
  top: "fc1_glasses"
}
layer {
  name: "drop1_glasses"
  type: "Dropout"
  bottom: "fc1_glasses"
  top: "fc1_glasses"
  dropout_param {
    dropout_ratio: 0.5
  }
}
layer {
  name: "fc2_glasses"
  type: "InnerProduct"
  bottom: "fc1_glasses"
  top: "fc2_glasses"
  param {
    lr_mult: 1
    decay_mult: 1
  }
  param {
    lr_mult: 2
    decay_mult: 0
  }
  inner_product_param {
    num_output: 1
    weight_filler {
      type: "gaussian"
      std: 0.5
    }
    bias_filler {
      type: "constant"
      value: 0.5
    }
  }
}
layer {
  name: "loss_glasses"
  type: "EuclideanLoss"
  bottom: "fc2_glasses"
  bottom: "glasses"
  top: "loss_glasses"
}
layer {
  name: "fc1_nose_confidence"
  type: "InnerProduct"
  bottom: "conv5"
  top: "fc1_nose_confidence"
  param {
    lr_mult: 1
    decay_mult: 1
  }
  param {
    lr_mult: 2
    decay_mult: 0
  }
  inner_product_param {
    num_output: 256
    weight_filler {
      type: "xavier"
    }
    bias_filler {
      type: "constant"
      value: 0.1
    }
  }
}
layer {
  name: "relu_nose_confidence"
  type: "ReLU"
  bottom: "fc1_nose_confidence"
  top: "fc1_nose_confidence"
}
layer {
  name: "drop1_nose_confidence"
  type: "Dropout"
  bottom: "fc1_nose_confidence"
  top: "fc1_nose_confidence"
  dropout_param {
    dropout_ratio: 0.5
  }
}
layer {
  name: "fc2_nose_confidence"
  type: "InnerProduct"
  bottom: "fc1_nose_confidence"
  top: "fc2_nose_confidence"
  param {
    lr_mult: 1
    decay_mult: 1
  }
  param {
    lr_mult: 2
    decay_mult: 0
  }
  inner_product_param {
    num_output: 1
    weight_filler {
      type: "gaussian"
      std: 0.5
    }
    bias_filler {
      type: "constant"
      value: 0.5
    }
  }
}
layer {
  name: "loss_nose_confidence"
  type: "EuclideanLoss"
  bottom: "fc2_nose_confidence"
  bottom: "nose_visibility"
  top: "loss_nose_confidence"
}
layer {
  name: "fc1_left_mouth_confidence"
  type: "InnerProduct"
  bottom: "conv5"
  top: "fc1_left_mouth_confidence"
  param {
    lr_mult: 1
    decay_mult: 1
  }
  param {
    lr_mult: 2
    decay_mult: 0
  }
  inner_product_param {
    num_output: 256
    weight_filler {
      type: "xavier"
    }
    bias_filler {
      type: "constant"
      value: 0.1
    }
  }
}
layer {
  name: "relu_left_mouth_confidence"
  type: "ReLU"
  bottom: "fc1_left_mouth_confidence"
  top: "fc1_left_mouth_confidence"
}
layer {
  name: "drop1_left_mouth_confidence"
  type: "Dropout"
  bottom: "fc1_left_mouth_confidence"
  top: "fc1_left_mouth_confidence"
  dropout_param {
    dropout_ratio: 0.5
  }
}
layer {
  name: "fc2_left_mouth_confidence"
  type: "InnerProduct"
  bottom: "fc1_left_mouth_confidence"
  top: "fc2_left_mouth_confidence"
  param {
    lr_mult: 1
    decay_mult: 1
  }
  param {
    lr_mult: 2
    decay_mult: 0
  }
  inner_product_param {
    num_output: 1
    weight_filler {
      type: "gaussian"
      std: 0.5
    }
    bias_filler {
      type: "constant"
      value: 0.5
    }
  }
}
layer {
  name: "loss_left_mouth_confidence"
  type: "EuclideanLoss"
  bottom: "fc2_left_mouth_confidence"
  bottom: "mouth_visibility_left"
  top: "loss_left_mouth_confidence"
}
layer {
  name: "fc1_right_mouth_confidence"
  type: "InnerProduct"
  bottom: "conv5"
  top: "fc1_right_mouth_confidence"
  param {
    lr_mult: 1
    decay_mult: 1
  }
  param {
    lr_mult: 2
    decay_mult: 0
  }
  inner_product_param {
    num_output: 256
    weight_filler {
      type: "xavier"
    }
    bias_filler {
      type: "constant"
      value: 0.1
    }
  }
}
layer {
  name: "relu_right_mouth_confidence"
  type: "ReLU"
  bottom: "fc1_right_mouth_confidence"
  top: "fc1_right_mouth_confidence"
}
layer {
  name: "drop1_right_mouth_confidence"
  type: "Dropout"
  bottom: "fc1_right_mouth_confidence"
  top: "fc1_right_mouth_confidence"
  dropout_param {
    dropout_ratio: 0.5
  }
}
layer {
  name: "fc2_right_mouth_confidence"
  type: "InnerProduct"
  bottom: "fc1_right_mouth_confidence"
  top: "fc2_right_mouth_confidence"
  param {
    lr_mult: 1
    decay_mult: 1
  }
  param {
    lr_mult: 2
    decay_mult: 0
  }
  inner_product_param {
    num_output: 1
    weight_filler {
      type: "gaussian"
      std: 0.5
    }
    bias_filler {
      type: "constant"
      value: 0.5
    }
  }
}
layer {
  name: "loss_right_mouth_confidence"
  type: "EuclideanLoss"
  bottom: "fc2_right_mouth_confidence"
  bottom: "mouth_visibility_right"
  top: "loss_right_mouth_confidence"
}
layer {
  name: "fc1_smile"
  type: "InnerProduct"
  bottom: "conv5"
  top: "fc1_smile"
  param {
    lr_mult: 1
    decay_mult: 1
  }
  param {
    lr_mult: 2
    decay_mult: 0
  }
  inner_product_param {
    num_output: 256
    weight_filler {
      type: "xavier"
    }
    bias_filler {
      type: "constant"
      value: 0.1
    }
  }
}
layer {
  name: "relu_smile"
  type: "ReLU"
  bottom: "fc1_smile"
  top: "fc1_smile"
}
layer {
  name: "drop1_smile"
  type: "Dropout"
  bottom: "fc1_smile"
  top: "fc1_smile"
  dropout_param {
    dropout_ratio: 0.5
  }
}
layer {
  name: "fc2_smile"
  type: "InnerProduct"
  bottom: "fc1_smile"
  top: "fc2_smile"
  param {
    lr_mult: 1
    decay_mult: 1
  }
  param {
    lr_mult: 2
    decay_mult: 0
  }
  inner_product_param {
    num_output: 1
    weight_filler {
      type: "gaussian"
      std: 0.5
    }
    bias_filler {
      type: "constant"
      value: 0.5
    }
  }
}
layer {
  name: "loss_smile"
  type: "EuclideanLoss"
  bottom: "fc2_smile"
  bottom: "smile"
  top: "loss_smile"
}
I0330 10:57:47.967219  2266 layer_factory.hpp:77] Creating layer data
I0330 10:57:47.967231  2266 net.cpp:91] Creating Layer data
I0330 10:57:47.967236  2266 net.cpp:399] data -> data
I0330 10:57:47.967253  2266 net.cpp:399] data -> eye_visibility_left
I0330 10:57:47.967260  2266 net.cpp:399] data -> eye_visibility_right
I0330 10:57:47.967264  2266 net.cpp:399] data -> nose_visibility
I0330 10:57:47.967268  2266 net.cpp:399] data -> mouth_visibility_left
I0330 10:57:47.967273  2266 net.cpp:399] data -> mouth_visibility_right
I0330 10:57:47.967278  2266 net.cpp:399] data -> smile
I0330 10:57:47.967283  2266 net.cpp:399] data -> glasses
I0330 10:57:47.967286  2266 hdf5_data_layer.cpp:79] Loading list of HDF5 filenames from: /home/wzleong/Downloads/MTFL/train_scaled_mean_subtracted_own_data_multiple_label_data_list.txt
I0330 10:57:47.967314  2266 hdf5_data_layer.cpp:93] Number of HDF5 files: 12
I0330 10:57:47.968844  2266 hdf5.cpp:32] Datatype class: H5T_FLOAT
I0330 10:57:49.780145  2266 net.cpp:141] Setting up data
I0330 10:57:49.780169  2266 net.cpp:148] Top shape: 128 1 128 128 (2097152)
I0330 10:57:49.780174  2266 net.cpp:148] Top shape: 128 1 (128)
I0330 10:57:49.780179  2266 net.cpp:148] Top shape: 128 1 (128)
I0330 10:57:49.780184  2266 net.cpp:148] Top shape: 128 1 (128)
I0330 10:57:49.780189  2266 net.cpp:148] Top shape: 128 1 (128)
I0330 10:57:49.780194  2266 net.cpp:148] Top shape: 128 1 (128)
I0330 10:57:49.780199  2266 net.cpp:148] Top shape: 128 1 (128)
I0330 10:57:49.780205  2266 net.cpp:148] Top shape: 128 1 (128)
I0330 10:57:49.780208  2266 net.cpp:156] Memory required for data: 8392192
I0330 10:57:49.780217  2266 layer_factory.hpp:77] Creating layer conv1
I0330 10:57:49.780239  2266 net.cpp:91] Creating Layer conv1
I0330 10:57:49.780246  2266 net.cpp:425] conv1 <- data
I0330 10:57:49.780261  2266 net.cpp:399] conv1 -> conv1
I0330 10:57:49.781620  2266 net.cpp:141] Setting up conv1
I0330 10:57:49.781633  2266 net.cpp:148] Top shape: 128 64 60 60 (29491200)
I0330 10:57:49.781636  2266 net.cpp:156] Memory required for data: 126356992
I0330 10:57:49.781657  2266 layer_factory.hpp:77] Creating layer relu1
I0330 10:57:49.781666  2266 net.cpp:91] Creating Layer relu1
I0330 10:57:49.781672  2266 net.cpp:425] relu1 <- conv1
I0330 10:57:49.781678  2266 net.cpp:386] relu1 -> conv1 (in-place)
I0330 10:57:49.781688  2266 net.cpp:141] Setting up relu1
I0330 10:57:49.781694  2266 net.cpp:148] Top shape: 128 64 60 60 (29491200)
I0330 10:57:49.781699  2266 net.cpp:156] Memory required for data: 244321792
I0330 10:57:49.781702  2266 layer_factory.hpp:77] Creating layer pool1
I0330 10:57:49.781708  2266 net.cpp:91] Creating Layer pool1
I0330 10:57:49.781713  2266 net.cpp:425] pool1 <- conv1
I0330 10:57:49.781718  2266 net.cpp:399] pool1 -> pool1
I0330 10:57:49.781764  2266 net.cpp:141] Setting up pool1
I0330 10:57:49.781782  2266 net.cpp:148] Top shape: 128 64 30 30 (7372800)
I0330 10:57:49.781786  2266 net.cpp:156] Memory required for data: 273812992
I0330 10:57:49.781790  2266 layer_factory.hpp:77] Creating layer conv2_squeeze
I0330 10:57:49.781801  2266 net.cpp:91] Creating Layer conv2_squeeze
I0330 10:57:49.781807  2266 net.cpp:425] conv2_squeeze <- pool1
I0330 10:57:49.781813  2266 net.cpp:399] conv2_squeeze -> conv2_squeeze
I0330 10:57:49.782344  2266 net.cpp:141] Setting up conv2_squeeze
I0330 10:57:49.782356  2266 net.cpp:148] Top shape: 128 32 30 30 (3686400)
I0330 10:57:49.782358  2266 net.cpp:156] Memory required for data: 288558592
I0330 10:57:49.782369  2266 layer_factory.hpp:77] Creating layer relu2_squeeze
I0330 10:57:49.782377  2266 net.cpp:91] Creating Layer relu2_squeeze
I0330 10:57:49.782387  2266 net.cpp:425] relu2_squeeze <- conv2_squeeze
I0330 10:57:49.782393  2266 net.cpp:386] relu2_squeeze -> conv2_squeeze (in-place)
I0330 10:57:49.782402  2266 net.cpp:141] Setting up relu2_squeeze
I0330 10:57:49.782408  2266 net.cpp:148] Top shape: 128 32 30 30 (3686400)
I0330 10:57:49.782413  2266 net.cpp:156] Memory required for data: 303304192
I0330 10:57:49.782418  2266 layer_factory.hpp:77] Creating layer conv2_squeeze_relu2_squeeze_0_split
I0330 10:57:49.782423  2266 net.cpp:91] Creating Layer conv2_squeeze_relu2_squeeze_0_split
I0330 10:57:49.782428  2266 net.cpp:425] conv2_squeeze_relu2_squeeze_0_split <- conv2_squeeze
I0330 10:57:49.782433  2266 net.cpp:399] conv2_squeeze_relu2_squeeze_0_split -> conv2_squeeze_relu2_squeeze_0_split_0
I0330 10:57:49.782443  2266 net.cpp:399] conv2_squeeze_relu2_squeeze_0_split -> conv2_squeeze_relu2_squeeze_0_split_1
I0330 10:57:49.782476  2266 net.cpp:141] Setting up conv2_squeeze_relu2_squeeze_0_split
I0330 10:57:49.782483  2266 net.cpp:148] Top shape: 128 32 30 30 (3686400)
I0330 10:57:49.782488  2266 net.cpp:148] Top shape: 128 32 30 30 (3686400)
I0330 10:57:49.782492  2266 net.cpp:156] Memory required for data: 332795392
I0330 10:57:49.782495  2266 layer_factory.hpp:77] Creating layer conv2_1
I0330 10:57:49.782506  2266 net.cpp:91] Creating Layer conv2_1
I0330 10:57:49.782510  2266 net.cpp:425] conv2_1 <- conv2_squeeze_relu2_squeeze_0_split_0
I0330 10:57:49.782518  2266 net.cpp:399] conv2_1 -> conv2_1
I0330 10:57:49.782747  2266 net.cpp:141] Setting up conv2_1
I0330 10:57:49.782755  2266 net.cpp:148] Top shape: 128 32 30 30 (3686400)
I0330 10:57:49.782759  2266 net.cpp:156] Memory required for data: 347540992
I0330 10:57:49.782768  2266 layer_factory.hpp:77] Creating layer relu2_1
I0330 10:57:49.782776  2266 net.cpp:91] Creating Layer relu2_1
I0330 10:57:49.782783  2266 net.cpp:425] relu2_1 <- conv2_1
I0330 10:57:49.782789  2266 net.cpp:386] relu2_1 -> conv2_1 (in-place)
I0330 10:57:49.782796  2266 net.cpp:141] Setting up relu2_1
I0330 10:57:49.782804  2266 net.cpp:148] Top shape: 128 32 30 30 (3686400)
I0330 10:57:49.782809  2266 net.cpp:156] Memory required for data: 362286592
I0330 10:57:49.782811  2266 layer_factory.hpp:77] Creating layer conv2_2
I0330 10:57:49.782820  2266 net.cpp:91] Creating Layer conv2_2
I0330 10:57:49.782825  2266 net.cpp:425] conv2_2 <- conv2_1
I0330 10:57:49.782832  2266 net.cpp:399] conv2_2 -> conv2_2
I0330 10:57:49.783047  2266 net.cpp:141] Setting up conv2_2
I0330 10:57:49.783054  2266 net.cpp:148] Top shape: 128 32 30 30 (3686400)
I0330 10:57:49.783058  2266 net.cpp:156] Memory required for data: 377032192
I0330 10:57:49.783066  2266 layer_factory.hpp:77] Creating layer relu2_2
I0330 10:57:49.783073  2266 net.cpp:91] Creating Layer relu2_2
I0330 10:57:49.783077  2266 net.cpp:425] relu2_2 <- conv2_2
I0330 10:57:49.783082  2266 net.cpp:386] relu2_2 -> conv2_2 (in-place)
I0330 10:57:49.783089  2266 net.cpp:141] Setting up relu2_2
I0330 10:57:49.783097  2266 net.cpp:148] Top shape: 128 32 30 30 (3686400)
I0330 10:57:49.783100  2266 net.cpp:156] Memory required for data: 391777792
I0330 10:57:49.783103  2266 layer_factory.hpp:77] Creating layer conv2_3
I0330 10:57:49.783113  2266 net.cpp:91] Creating Layer conv2_3
I0330 10:57:49.783118  2266 net.cpp:425] conv2_3 <- conv2_2
I0330 10:57:49.783133  2266 net.cpp:399] conv2_3 -> conv2_3
I0330 10:57:49.783354  2266 net.cpp:141] Setting up conv2_3
I0330 10:57:49.783360  2266 net.cpp:148] Top shape: 128 32 30 30 (3686400)
I0330 10:57:49.783365  2266 net.cpp:156] Memory required for data: 406523392
I0330 10:57:49.783375  2266 layer_factory.hpp:77] Creating layer relu2_3
I0330 10:57:49.783381  2266 net.cpp:91] Creating Layer relu2_3
I0330 10:57:49.783385  2266 net.cpp:425] relu2_3 <- conv2_3
I0330 10:57:49.783391  2266 net.cpp:386] relu2_3 -> conv2_3 (in-place)
I0330 10:57:49.783398  2266 net.cpp:141] Setting up relu2_3
I0330 10:57:49.783406  2266 net.cpp:148] Top shape: 128 32 30 30 (3686400)
I0330 10:57:49.783411  2266 net.cpp:156] Memory required for data: 421268992
I0330 10:57:49.783414  2266 layer_factory.hpp:77] Creating layer conv2_4
I0330 10:57:49.783423  2266 net.cpp:91] Creating Layer conv2_4
I0330 10:57:49.783427  2266 net.cpp:425] conv2_4 <- conv2_3
I0330 10:57:49.783434  2266 net.cpp:399] conv2_4 -> conv2_4
I0330 10:57:49.783711  2266 net.cpp:141] Setting up conv2_4
I0330 10:57:49.783720  2266 net.cpp:148] Top shape: 128 64 30 30 (7372800)
I0330 10:57:49.783722  2266 net.cpp:156] Memory required for data: 450760192
I0330 10:57:49.783730  2266 layer_factory.hpp:77] Creating layer relu2_4
I0330 10:57:49.783736  2266 net.cpp:91] Creating Layer relu2_4
I0330 10:57:49.783742  2266 net.cpp:425] relu2_4 <- conv2_4
I0330 10:57:49.783747  2266 net.cpp:386] relu2_4 -> conv2_4 (in-place)
I0330 10:57:49.783754  2266 net.cpp:141] Setting up relu2_4
I0330 10:57:49.783761  2266 net.cpp:148] Top shape: 128 64 30 30 (7372800)
I0330 10:57:49.783766  2266 net.cpp:156] Memory required for data: 480251392
I0330 10:57:49.783768  2266 layer_factory.hpp:77] Creating layer conv2_sub
I0330 10:57:49.783777  2266 net.cpp:91] Creating Layer conv2_sub
I0330 10:57:49.783783  2266 net.cpp:425] conv2_sub <- conv2_squeeze_relu2_squeeze_0_split_1
I0330 10:57:49.783790  2266 net.cpp:399] conv2_sub -> conv2_sub
I0330 10:57:49.784060  2266 net.cpp:141] Setting up conv2_sub
I0330 10:57:49.784066  2266 net.cpp:148] Top shape: 128 64 30 30 (7372800)
I0330 10:57:49.784070  2266 net.cpp:156] Memory required for data: 509742592
I0330 10:57:49.784077  2266 layer_factory.hpp:77] Creating layer relu2_sub
I0330 10:57:49.784085  2266 net.cpp:91] Creating Layer relu2_sub
I0330 10:57:49.784090  2266 net.cpp:425] relu2_sub <- conv2_sub
I0330 10:57:49.784096  2266 net.cpp:386] relu2_sub -> conv2_sub (in-place)
I0330 10:57:49.784103  2266 net.cpp:141] Setting up relu2_sub
I0330 10:57:49.784111  2266 net.cpp:148] Top shape: 128 64 30 30 (7372800)
I0330 10:57:49.784113  2266 net.cpp:156] Memory required for data: 539233792
I0330 10:57:49.784117  2266 layer_factory.hpp:77] Creating layer concat_conv2
I0330 10:57:49.784133  2266 net.cpp:91] Creating Layer concat_conv2
I0330 10:57:49.784137  2266 net.cpp:425] concat_conv2 <- conv2_sub
I0330 10:57:49.784142  2266 net.cpp:425] concat_conv2 <- conv2_4
I0330 10:57:49.784148  2266 net.cpp:399] concat_conv2 -> concat_conv2
I0330 10:57:49.784173  2266 net.cpp:141] Setting up concat_conv2
I0330 10:57:49.784178  2266 net.cpp:148] Top shape: 128 128 30 30 (14745600)
I0330 10:57:49.784181  2266 net.cpp:156] Memory required for data: 598216192
I0330 10:57:49.784185  2266 layer_factory.hpp:77] Creating layer pool2
I0330 10:57:49.784191  2266 net.cpp:91] Creating Layer pool2
I0330 10:57:49.784195  2266 net.cpp:425] pool2 <- concat_conv2
I0330 10:57:49.784201  2266 net.cpp:399] pool2 -> pool2
I0330 10:57:49.784232  2266 net.cpp:141] Setting up pool2
I0330 10:57:49.784238  2266 net.cpp:148] Top shape: 128 128 15 15 (3686400)
I0330 10:57:49.784242  2266 net.cpp:156] Memory required for data: 612961792
I0330 10:57:49.784245  2266 layer_factory.hpp:77] Creating layer conv3_squeeze
I0330 10:57:49.784255  2266 net.cpp:91] Creating Layer conv3_squeeze
I0330 10:57:49.784260  2266 net.cpp:425] conv3_squeeze <- pool2
I0330 10:57:49.784266  2266 net.cpp:399] conv3_squeeze -> conv3_squeeze
I0330 10:57:49.784482  2266 net.cpp:141] Setting up conv3_squeeze
I0330 10:57:49.784497  2266 net.cpp:148] Top shape: 128 64 15 15 (1843200)
I0330 10:57:49.784500  2266 net.cpp:156] Memory required for data: 620334592
I0330 10:57:49.784507  2266 layer_factory.hpp:77] Creating layer relu3_squeeze
I0330 10:57:49.784514  2266 net.cpp:91] Creating Layer relu3_squeeze
I0330 10:57:49.784520  2266 net.cpp:425] relu3_squeeze <- conv3_squeeze
I0330 10:57:49.784525  2266 net.cpp:386] relu3_squeeze -> conv3_squeeze (in-place)
I0330 10:57:49.784531  2266 net.cpp:141] Setting up relu3_squeeze
I0330 10:57:49.784538  2266 net.cpp:148] Top shape: 128 64 15 15 (1843200)
I0330 10:57:49.784543  2266 net.cpp:156] Memory required for data: 627707392
I0330 10:57:49.784546  2266 layer_factory.hpp:77] Creating layer conv3_squeeze_relu3_squeeze_0_split
I0330 10:57:49.784551  2266 net.cpp:91] Creating Layer conv3_squeeze_relu3_squeeze_0_split
I0330 10:57:49.784555  2266 net.cpp:425] conv3_squeeze_relu3_squeeze_0_split <- conv3_squeeze
I0330 10:57:49.784561  2266 net.cpp:399] conv3_squeeze_relu3_squeeze_0_split -> conv3_squeeze_relu3_squeeze_0_split_0
I0330 10:57:49.784569  2266 net.cpp:399] conv3_squeeze_relu3_squeeze_0_split -> conv3_squeeze_relu3_squeeze_0_split_1
I0330 10:57:49.784601  2266 net.cpp:141] Setting up conv3_squeeze_relu3_squeeze_0_split
I0330 10:57:49.784608  2266 net.cpp:148] Top shape: 128 64 15 15 (1843200)
I0330 10:57:49.784615  2266 net.cpp:148] Top shape: 128 64 15 15 (1843200)
I0330 10:57:49.784618  2266 net.cpp:156] Memory required for data: 642452992
I0330 10:57:49.784622  2266 layer_factory.hpp:77] Creating layer conv3_1
I0330 10:57:49.784631  2266 net.cpp:91] Creating Layer conv3_1
I0330 10:57:49.784637  2266 net.cpp:425] conv3_1 <- conv3_squeeze_relu3_squeeze_0_split_0
I0330 10:57:49.784644  2266 net.cpp:399] conv3_1 -> conv3_1
I0330 10:57:49.785373  2266 net.cpp:141] Setting up conv3_1
I0330 10:57:49.785383  2266 net.cpp:148] Top shape: 128 64 15 15 (1843200)
I0330 10:57:49.785388  2266 net.cpp:156] Memory required for data: 649825792
I0330 10:57:49.785400  2266 layer_factory.hpp:77] Creating layer relu3_1
I0330 10:57:49.785408  2266 net.cpp:91] Creating Layer relu3_1
I0330 10:57:49.785411  2266 net.cpp:425] relu3_1 <- conv3_1
I0330 10:57:49.785419  2266 net.cpp:386] relu3_1 -> conv3_1 (in-place)
I0330 10:57:49.785428  2266 net.cpp:141] Setting up relu3_1
I0330 10:57:49.785434  2266 net.cpp:148] Top shape: 128 64 15 15 (1843200)
I0330 10:57:49.785437  2266 net.cpp:156] Memory required for data: 657198592
I0330 10:57:49.785441  2266 layer_factory.hpp:77] Creating layer conv3_2
I0330 10:57:49.785450  2266 net.cpp:91] Creating Layer conv3_2
I0330 10:57:49.785455  2266 net.cpp:425] conv3_2 <- conv3_1
I0330 10:57:49.785467  2266 net.cpp:399] conv3_2 -> conv3_2
I0330 10:57:49.785842  2266 net.cpp:141] Setting up conv3_2
I0330 10:57:49.785851  2266 net.cpp:148] Top shape: 128 64 15 15 (1843200)
I0330 10:57:49.785854  2266 net.cpp:156] Memory required for data: 664571392
I0330 10:57:49.785863  2266 layer_factory.hpp:77] Creating layer relu3_2
I0330 10:57:49.785871  2266 net.cpp:91] Creating Layer relu3_2
I0330 10:57:49.785874  2266 net.cpp:425] relu3_2 <- conv3_2
I0330 10:57:49.785881  2266 net.cpp:386] relu3_2 -> conv3_2 (in-place)
I0330 10:57:49.785887  2266 net.cpp:141] Setting up relu3_2
I0330 10:57:49.785892  2266 net.cpp:148] Top shape: 128 64 15 15 (1843200)
I0330 10:57:49.785897  2266 net.cpp:156] Memory required for data: 671944192
I0330 10:57:49.785900  2266 layer_factory.hpp:77] Creating layer conv3_sub
I0330 10:57:49.785909  2266 net.cpp:91] Creating Layer conv3_sub
I0330 10:57:49.785915  2266 net.cpp:425] conv3_sub <- conv3_squeeze_relu3_squeeze_0_split_1
I0330 10:57:49.785925  2266 net.cpp:399] conv3_sub -> conv3_sub
I0330 10:57:49.786299  2266 net.cpp:141] Setting up conv3_sub
I0330 10:57:49.786306  2266 net.cpp:148] Top shape: 128 64 15 15 (1843200)
I0330 10:57:49.786311  2266 net.cpp:156] Memory required for data: 679316992
I0330 10:57:49.786319  2266 layer_factory.hpp:77] Creating layer relu3_sub
I0330 10:57:49.786326  2266 net.cpp:91] Creating Layer relu3_sub
I0330 10:57:49.786340  2266 net.cpp:425] relu3_sub <- conv3_sub
I0330 10:57:49.786347  2266 net.cpp:386] relu3_sub -> conv3_sub (in-place)
I0330 10:57:49.786355  2266 net.cpp:141] Setting up relu3_sub
I0330 10:57:49.786361  2266 net.cpp:148] Top shape: 128 64 15 15 (1843200)
I0330 10:57:49.786365  2266 net.cpp:156] Memory required for data: 686689792
I0330 10:57:49.786368  2266 layer_factory.hpp:77] Creating layer concat_conv3
I0330 10:57:49.786376  2266 net.cpp:91] Creating Layer concat_conv3
I0330 10:57:49.786381  2266 net.cpp:425] concat_conv3 <- conv3_sub
I0330 10:57:49.786386  2266 net.cpp:425] concat_conv3 <- conv3_2
I0330 10:57:49.786392  2266 net.cpp:399] concat_conv3 -> concat_conv3
I0330 10:57:49.786415  2266 net.cpp:141] Setting up concat_conv3
I0330 10:57:49.786422  2266 net.cpp:148] Top shape: 128 128 15 15 (3686400)
I0330 10:57:49.786424  2266 net.cpp:156] Memory required for data: 701435392
I0330 10:57:49.786429  2266 layer_factory.hpp:77] Creating layer pool3
I0330 10:57:49.786434  2266 net.cpp:91] Creating Layer pool3
I0330 10:57:49.786438  2266 net.cpp:425] pool3 <- concat_conv3
I0330 10:57:49.786445  2266 net.cpp:399] pool3 -> pool3
I0330 10:57:49.786478  2266 net.cpp:141] Setting up pool3
I0330 10:57:49.786484  2266 net.cpp:148] Top shape: 128 128 8 8 (1048576)
I0330 10:57:49.786489  2266 net.cpp:156] Memory required for data: 705629696
I0330 10:57:49.786491  2266 layer_factory.hpp:77] Creating layer conv4_squeeze
I0330 10:57:49.786502  2266 net.cpp:91] Creating Layer conv4_squeeze
I0330 10:57:49.786507  2266 net.cpp:425] conv4_squeeze <- pool3
I0330 10:57:49.786515  2266 net.cpp:399] conv4_squeeze -> conv4_squeeze
I0330 10:57:49.786746  2266 net.cpp:141] Setting up conv4_squeeze
I0330 10:57:49.786753  2266 net.cpp:148] Top shape: 128 64 8 8 (524288)
I0330 10:57:49.786757  2266 net.cpp:156] Memory required for data: 707726848
I0330 10:57:49.786763  2266 layer_factory.hpp:77] Creating layer relu4_squeeze
I0330 10:57:49.786769  2266 net.cpp:91] Creating Layer relu4_squeeze
I0330 10:57:49.786775  2266 net.cpp:425] relu4_squeeze <- conv4_squeeze
I0330 10:57:49.786782  2266 net.cpp:386] relu4_squeeze -> conv4_squeeze (in-place)
I0330 10:57:49.786789  2266 net.cpp:141] Setting up relu4_squeeze
I0330 10:57:49.786794  2266 net.cpp:148] Top shape: 128 64 8 8 (524288)
I0330 10:57:49.786799  2266 net.cpp:156] Memory required for data: 709824000
I0330 10:57:49.786803  2266 layer_factory.hpp:77] Creating layer conv4_1
I0330 10:57:49.786818  2266 net.cpp:91] Creating Layer conv4_1
I0330 10:57:49.786821  2266 net.cpp:425] conv4_1 <- conv4_squeeze
I0330 10:57:49.786828  2266 net.cpp:399] conv4_1 -> conv4_1
I0330 10:57:49.787752  2266 net.cpp:141] Setting up conv4_1
I0330 10:57:49.787762  2266 net.cpp:148] Top shape: 128 128 6 6 (589824)
I0330 10:57:49.787765  2266 net.cpp:156] Memory required for data: 712183296
I0330 10:57:49.787775  2266 layer_factory.hpp:77] Creating layer relu4_1
I0330 10:57:49.787783  2266 net.cpp:91] Creating Layer relu4_1
I0330 10:57:49.787788  2266 net.cpp:425] relu4_1 <- conv4_1
I0330 10:57:49.787796  2266 net.cpp:386] relu4_1 -> conv4_1 (in-place)
I0330 10:57:49.787803  2266 net.cpp:141] Setting up relu4_1
I0330 10:57:49.787811  2266 net.cpp:148] Top shape: 128 128 6 6 (589824)
I0330 10:57:49.787814  2266 net.cpp:156] Memory required for data: 714542592
I0330 10:57:49.787818  2266 layer_factory.hpp:77] Creating layer conv4_2
I0330 10:57:49.787829  2266 net.cpp:91] Creating Layer conv4_2
I0330 10:57:49.787833  2266 net.cpp:425] conv4_2 <- conv4_1
I0330 10:57:49.787842  2266 net.cpp:399] conv4_2 -> conv4_2
I0330 10:57:49.788805  2266 net.cpp:141] Setting up conv4_2
I0330 10:57:49.788815  2266 net.cpp:148] Top shape: 128 128 4 4 (262144)
I0330 10:57:49.788817  2266 net.cpp:156] Memory required for data: 715591168
I0330 10:57:49.788825  2266 layer_factory.hpp:77] Creating layer relu4_2
I0330 10:57:49.788830  2266 net.cpp:91] Creating Layer relu4_2
I0330 10:57:49.788835  2266 net.cpp:425] relu4_2 <- conv4_2
I0330 10:57:49.788839  2266 net.cpp:386] relu4_2 -> conv4_2 (in-place)
I0330 10:57:49.788854  2266 net.cpp:141] Setting up relu4_2
I0330 10:57:49.788859  2266 net.cpp:148] Top shape: 128 128 4 4 (262144)
I0330 10:57:49.788864  2266 net.cpp:156] Memory required for data: 716639744
I0330 10:57:49.788867  2266 layer_factory.hpp:77] Creating layer conv4_3
I0330 10:57:49.788877  2266 net.cpp:91] Creating Layer conv4_3
I0330 10:57:49.788882  2266 net.cpp:425] conv4_3 <- conv4_2
I0330 10:57:49.788892  2266 net.cpp:399] conv4_3 -> conv4_3
I0330 10:57:49.791003  2266 net.cpp:141] Setting up conv4_3
I0330 10:57:49.791014  2266 net.cpp:148] Top shape: 128 256 2 2 (131072)
I0330 10:57:49.791018  2266 net.cpp:156] Memory required for data: 717164032
I0330 10:57:49.791026  2266 layer_factory.hpp:77] Creating layer relu4_3
I0330 10:57:49.791033  2266 net.cpp:91] Creating Layer relu4_3
I0330 10:57:49.791043  2266 net.cpp:425] relu4_3 <- conv4_3
I0330 10:57:49.791049  2266 net.cpp:386] relu4_3 -> conv4_3 (in-place)
I0330 10:57:49.791055  2266 net.cpp:141] Setting up relu4_3
I0330 10:57:49.791062  2266 net.cpp:148] Top shape: 128 256 2 2 (131072)
I0330 10:57:49.791065  2266 net.cpp:156] Memory required for data: 717688320
I0330 10:57:49.791069  2266 layer_factory.hpp:77] Creating layer conv5
I0330 10:57:49.791080  2266 net.cpp:91] Creating Layer conv5
I0330 10:57:49.791085  2266 net.cpp:425] conv5 <- conv4_3
I0330 10:57:49.791092  2266 net.cpp:399] conv5 -> conv5
I0330 10:57:49.792323  2266 net.cpp:141] Setting up conv5
I0330 10:57:49.792335  2266 net.cpp:148] Top shape: 128 512 2 2 (262144)
I0330 10:57:49.792338  2266 net.cpp:156] Memory required for data: 718736896
I0330 10:57:49.792346  2266 layer_factory.hpp:77] Creating layer relu5
I0330 10:57:49.792353  2266 net.cpp:91] Creating Layer relu5
I0330 10:57:49.792359  2266 net.cpp:425] relu5 <- conv5
I0330 10:57:49.792366  2266 net.cpp:386] relu5 -> conv5 (in-place)
I0330 10:57:49.792373  2266 net.cpp:141] Setting up relu5
I0330 10:57:49.792381  2266 net.cpp:148] Top shape: 128 512 2 2 (262144)
I0330 10:57:49.792384  2266 net.cpp:156] Memory required for data: 719785472
I0330 10:57:49.792387  2266 layer_factory.hpp:77] Creating layer conv5_relu5_0_split
I0330 10:57:49.792397  2266 net.cpp:91] Creating Layer conv5_relu5_0_split
I0330 10:57:49.792400  2266 net.cpp:425] conv5_relu5_0_split <- conv5
I0330 10:57:49.792409  2266 net.cpp:399] conv5_relu5_0_split -> conv5_relu5_0_split_0
I0330 10:57:49.792420  2266 net.cpp:399] conv5_relu5_0_split -> conv5_relu5_0_split_1
I0330 10:57:49.792429  2266 net.cpp:399] conv5_relu5_0_split -> conv5_relu5_0_split_2
I0330 10:57:49.792438  2266 net.cpp:399] conv5_relu5_0_split -> conv5_relu5_0_split_3
I0330 10:57:49.792449  2266 net.cpp:399] conv5_relu5_0_split -> conv5_relu5_0_split_4
I0330 10:57:49.792459  2266 net.cpp:399] conv5_relu5_0_split -> conv5_relu5_0_split_5
I0330 10:57:49.792467  2266 net.cpp:399] conv5_relu5_0_split -> conv5_relu5_0_split_6
I0330 10:57:49.792548  2266 net.cpp:141] Setting up conv5_relu5_0_split
I0330 10:57:49.792557  2266 net.cpp:148] Top shape: 128 512 2 2 (262144)
I0330 10:57:49.792562  2266 net.cpp:148] Top shape: 128 512 2 2 (262144)
I0330 10:57:49.792567  2266 net.cpp:148] Top shape: 128 512 2 2 (262144)
I0330 10:57:49.792572  2266 net.cpp:148] Top shape: 128 512 2 2 (262144)
I0330 10:57:49.792578  2266 net.cpp:148] Top shape: 128 512 2 2 (262144)
I0330 10:57:49.792583  2266 net.cpp:148] Top shape: 128 512 2 2 (262144)
I0330 10:57:49.792587  2266 net.cpp:148] Top shape: 128 512 2 2 (262144)
I0330 10:57:49.792593  2266 net.cpp:156] Memory required for data: 727125504
I0330 10:57:49.792596  2266 layer_factory.hpp:77] Creating layer fc1_left_eye_confidence
I0330 10:57:49.792606  2266 net.cpp:91] Creating Layer fc1_left_eye_confidence
I0330 10:57:49.792610  2266 net.cpp:425] fc1_left_eye_confidence <- conv5_relu5_0_split_0
I0330 10:57:49.792618  2266 net.cpp:399] fc1_left_eye_confidence -> fc1_left_eye_confidence
I0330 10:57:49.796113  2266 net.cpp:141] Setting up fc1_left_eye_confidence
I0330 10:57:49.796130  2266 net.cpp:148] Top shape: 128 256 (32768)
I0330 10:57:49.796134  2266 net.cpp:156] Memory required for data: 727256576
I0330 10:57:49.796164  2266 layer_factory.hpp:77] Creating layer relu_left_eye_confidence
I0330 10:57:49.796176  2266 net.cpp:91] Creating Layer relu_left_eye_confidence
I0330 10:57:49.796183  2266 net.cpp:425] relu_left_eye_confidence <- fc1_left_eye_confidence
I0330 10:57:49.796193  2266 net.cpp:386] relu_left_eye_confidence -> fc1_left_eye_confidence (in-place)
I0330 10:57:49.796203  2266 net.cpp:141] Setting up relu_left_eye_confidence
I0330 10:57:49.796211  2266 net.cpp:148] Top shape: 128 256 (32768)
I0330 10:57:49.796214  2266 net.cpp:156] Memory required for data: 727387648
I0330 10:57:49.796217  2266 layer_factory.hpp:77] Creating layer drop1_left_eye_confidence
I0330 10:57:49.796226  2266 net.cpp:91] Creating Layer drop1_left_eye_confidence
I0330 10:57:49.796231  2266 net.cpp:425] drop1_left_eye_confidence <- fc1_left_eye_confidence
I0330 10:57:49.796239  2266 net.cpp:386] drop1_left_eye_confidence -> fc1_left_eye_confidence (in-place)
I0330 10:57:49.796263  2266 net.cpp:141] Setting up drop1_left_eye_confidence
I0330 10:57:49.796269  2266 net.cpp:148] Top shape: 128 256 (32768)
I0330 10:57:49.796273  2266 net.cpp:156] Memory required for data: 727518720
I0330 10:57:49.796277  2266 layer_factory.hpp:77] Creating layer fc2_left_eye_confidence
I0330 10:57:49.796286  2266 net.cpp:91] Creating Layer fc2_left_eye_confidence
I0330 10:57:49.796291  2266 net.cpp:425] fc2_left_eye_confidence <- fc1_left_eye_confidence
I0330 10:57:49.796298  2266 net.cpp:399] fc2_left_eye_confidence -> fc2_left_eye_confidence
I0330 10:57:49.796399  2266 net.cpp:141] Setting up fc2_left_eye_confidence
I0330 10:57:49.796406  2266 net.cpp:148] Top shape: 128 1 (128)
I0330 10:57:49.796409  2266 net.cpp:156] Memory required for data: 727519232
I0330 10:57:49.796416  2266 layer_factory.hpp:77] Creating layer loss_left_eye_confidence
I0330 10:57:49.796424  2266 net.cpp:91] Creating Layer loss_left_eye_confidence
I0330 10:57:49.796429  2266 net.cpp:425] loss_left_eye_confidence <- fc2_left_eye_confidence
I0330 10:57:49.796434  2266 net.cpp:425] loss_left_eye_confidence <- eye_visibility_left
I0330 10:57:49.796442  2266 net.cpp:399] loss_left_eye_confidence -> loss_left_eye_confidence
I0330 10:57:49.796475  2266 net.cpp:141] Setting up loss_left_eye_confidence
I0330 10:57:49.796480  2266 net.cpp:148] Top shape: (1)
I0330 10:57:49.796483  2266 net.cpp:151]     with loss weight 1
I0330 10:57:49.796505  2266 net.cpp:156] Memory required for data: 727519236
I0330 10:57:49.796509  2266 layer_factory.hpp:77] Creating layer fc1_right_eye_confidence
I0330 10:57:49.796517  2266 net.cpp:91] Creating Layer fc1_right_eye_confidence
I0330 10:57:49.796522  2266 net.cpp:425] fc1_right_eye_confidence <- conv5_relu5_0_split_1
I0330 10:57:49.796532  2266 net.cpp:399] fc1_right_eye_confidence -> fc1_right_eye_confidence
I0330 10:57:49.799924  2266 net.cpp:141] Setting up fc1_right_eye_confidence
I0330 10:57:49.799937  2266 net.cpp:148] Top shape: 128 256 (32768)
I0330 10:57:49.799942  2266 net.cpp:156] Memory required for data: 727650308
I0330 10:57:49.799949  2266 layer_factory.hpp:77] Creating layer relu_right_eye_confidence
I0330 10:57:49.799957  2266 net.cpp:91] Creating Layer relu_right_eye_confidence
I0330 10:57:49.799962  2266 net.cpp:425] relu_right_eye_confidence <- fc1_right_eye_confidence
I0330 10:57:49.799970  2266 net.cpp:386] relu_right_eye_confidence -> fc1_right_eye_confidence (in-place)
I0330 10:57:49.799979  2266 net.cpp:141] Setting up relu_right_eye_confidence
I0330 10:57:49.799985  2266 net.cpp:148] Top shape: 128 256 (32768)
I0330 10:57:49.799988  2266 net.cpp:156] Memory required for data: 727781380
I0330 10:57:49.799991  2266 layer_factory.hpp:77] Creating layer drop1_right_eye_confidence
I0330 10:57:49.799998  2266 net.cpp:91] Creating Layer drop1_right_eye_confidence
I0330 10:57:49.800001  2266 net.cpp:425] drop1_right_eye_confidence <- fc1_right_eye_confidence
I0330 10:57:49.800007  2266 net.cpp:386] drop1_right_eye_confidence -> fc1_right_eye_confidence (in-place)
I0330 10:57:49.800027  2266 net.cpp:141] Setting up drop1_right_eye_confidence
I0330 10:57:49.800041  2266 net.cpp:148] Top shape: 128 256 (32768)
I0330 10:57:49.800045  2266 net.cpp:156] Memory required for data: 727912452
I0330 10:57:49.800048  2266 layer_factory.hpp:77] Creating layer fc2_right_eye_confidence
I0330 10:57:49.800056  2266 net.cpp:91] Creating Layer fc2_right_eye_confidence
I0330 10:57:49.800062  2266 net.cpp:425] fc2_right_eye_confidence <- fc1_right_eye_confidence
I0330 10:57:49.800068  2266 net.cpp:399] fc2_right_eye_confidence -> fc2_right_eye_confidence
I0330 10:57:49.800144  2266 net.cpp:141] Setting up fc2_right_eye_confidence
I0330 10:57:49.800150  2266 net.cpp:148] Top shape: 128 1 (128)
I0330 10:57:49.800154  2266 net.cpp:156] Memory required for data: 727912964
I0330 10:57:49.800161  2266 layer_factory.hpp:77] Creating layer loss_right_eye_confidence
I0330 10:57:49.800168  2266 net.cpp:91] Creating Layer loss_right_eye_confidence
I0330 10:57:49.800173  2266 net.cpp:425] loss_right_eye_confidence <- fc2_right_eye_confidence
I0330 10:57:49.800178  2266 net.cpp:425] loss_right_eye_confidence <- eye_visibility_right
I0330 10:57:49.800187  2266 net.cpp:399] loss_right_eye_confidence -> loss_right_eye_confidence
I0330 10:57:49.800216  2266 net.cpp:141] Setting up loss_right_eye_confidence
I0330 10:57:49.800221  2266 net.cpp:148] Top shape: (1)
I0330 10:57:49.800225  2266 net.cpp:151]     with loss weight 1
I0330 10:57:49.800232  2266 net.cpp:156] Memory required for data: 727912968
I0330 10:57:49.800236  2266 layer_factory.hpp:77] Creating layer fc1_glasses
I0330 10:57:49.800245  2266 net.cpp:91] Creating Layer fc1_glasses
I0330 10:57:49.800249  2266 net.cpp:425] fc1_glasses <- conv5_relu5_0_split_2
I0330 10:57:49.800257  2266 net.cpp:399] fc1_glasses -> fc1_glasses
I0330 10:57:49.803477  2266 net.cpp:141] Setting up fc1_glasses
I0330 10:57:49.803486  2266 net.cpp:148] Top shape: 128 256 (32768)
I0330 10:57:49.803489  2266 net.cpp:156] Memory required for data: 728044040
I0330 10:57:49.803498  2266 layer_factory.hpp:77] Creating layer relu_glasses
I0330 10:57:49.803503  2266 net.cpp:91] Creating Layer relu_glasses
I0330 10:57:49.803508  2266 net.cpp:425] relu_glasses <- fc1_glasses
I0330 10:57:49.803514  2266 net.cpp:386] relu_glasses -> fc1_glasses (in-place)
I0330 10:57:49.803522  2266 net.cpp:141] Setting up relu_glasses
I0330 10:57:49.803529  2266 net.cpp:148] Top shape: 128 256 (32768)
I0330 10:57:49.803530  2266 net.cpp:156] Memory required for data: 728175112
I0330 10:57:49.803534  2266 layer_factory.hpp:77] Creating layer drop1_glasses
I0330 10:57:49.803541  2266 net.cpp:91] Creating Layer drop1_glasses
I0330 10:57:49.803545  2266 net.cpp:425] drop1_glasses <- fc1_glasses
I0330 10:57:49.803550  2266 net.cpp:386] drop1_glasses -> fc1_glasses (in-place)
I0330 10:57:49.803580  2266 net.cpp:141] Setting up drop1_glasses
I0330 10:57:49.803586  2266 net.cpp:148] Top shape: 128 256 (32768)
I0330 10:57:49.803591  2266 net.cpp:156] Memory required for data: 728306184
I0330 10:57:49.803593  2266 layer_factory.hpp:77] Creating layer fc2_glasses
I0330 10:57:49.803599  2266 net.cpp:91] Creating Layer fc2_glasses
I0330 10:57:49.803603  2266 net.cpp:425] fc2_glasses <- fc1_glasses
I0330 10:57:49.803611  2266 net.cpp:399] fc2_glasses -> fc2_glasses
I0330 10:57:49.803683  2266 net.cpp:141] Setting up fc2_glasses
I0330 10:57:49.803689  2266 net.cpp:148] Top shape: 128 1 (128)
I0330 10:57:49.803694  2266 net.cpp:156] Memory required for data: 728306696
I0330 10:57:49.803699  2266 layer_factory.hpp:77] Creating layer loss_glasses
I0330 10:57:49.803712  2266 net.cpp:91] Creating Layer loss_glasses
I0330 10:57:49.803716  2266 net.cpp:425] loss_glasses <- fc2_glasses
I0330 10:57:49.803721  2266 net.cpp:425] loss_glasses <- glasses
I0330 10:57:49.803727  2266 net.cpp:399] loss_glasses -> loss_glasses
I0330 10:57:49.803755  2266 net.cpp:141] Setting up loss_glasses
I0330 10:57:49.803761  2266 net.cpp:148] Top shape: (1)
I0330 10:57:49.803764  2266 net.cpp:151]     with loss weight 1
I0330 10:57:49.803771  2266 net.cpp:156] Memory required for data: 728306700
I0330 10:57:49.803786  2266 layer_factory.hpp:77] Creating layer fc1_nose_confidence
I0330 10:57:49.803793  2266 net.cpp:91] Creating Layer fc1_nose_confidence
I0330 10:57:49.803798  2266 net.cpp:425] fc1_nose_confidence <- conv5_relu5_0_split_3
I0330 10:57:49.803807  2266 net.cpp:399] fc1_nose_confidence -> fc1_nose_confidence
I0330 10:57:49.806972  2266 net.cpp:141] Setting up fc1_nose_confidence
I0330 10:57:49.806982  2266 net.cpp:148] Top shape: 128 256 (32768)
I0330 10:57:49.806985  2266 net.cpp:156] Memory required for data: 728437772
I0330 10:57:49.806993  2266 layer_factory.hpp:77] Creating layer relu_nose_confidence
I0330 10:57:49.806999  2266 net.cpp:91] Creating Layer relu_nose_confidence
I0330 10:57:49.807003  2266 net.cpp:425] relu_nose_confidence <- fc1_nose_confidence
I0330 10:57:49.807013  2266 net.cpp:386] relu_nose_confidence -> fc1_nose_confidence (in-place)
I0330 10:57:49.807020  2266 net.cpp:141] Setting up relu_nose_confidence
I0330 10:57:49.807025  2266 net.cpp:148] Top shape: 128 256 (32768)
I0330 10:57:49.807029  2266 net.cpp:156] Memory required for data: 728568844
I0330 10:57:49.807032  2266 layer_factory.hpp:77] Creating layer drop1_nose_confidence
I0330 10:57:49.807037  2266 net.cpp:91] Creating Layer drop1_nose_confidence
I0330 10:57:49.807040  2266 net.cpp:425] drop1_nose_confidence <- fc1_nose_confidence
I0330 10:57:49.807046  2266 net.cpp:386] drop1_nose_confidence -> fc1_nose_confidence (in-place)
I0330 10:57:49.807063  2266 net.cpp:141] Setting up drop1_nose_confidence
I0330 10:57:49.807068  2266 net.cpp:148] Top shape: 128 256 (32768)
I0330 10:57:49.807071  2266 net.cpp:156] Memory required for data: 728699916
I0330 10:57:49.807075  2266 layer_factory.hpp:77] Creating layer fc2_nose_confidence
I0330 10:57:49.807082  2266 net.cpp:91] Creating Layer fc2_nose_confidence
I0330 10:57:49.807086  2266 net.cpp:425] fc2_nose_confidence <- fc1_nose_confidence
I0330 10:57:49.807092  2266 net.cpp:399] fc2_nose_confidence -> fc2_nose_confidence
I0330 10:57:49.807162  2266 net.cpp:141] Setting up fc2_nose_confidence
I0330 10:57:49.807168  2266 net.cpp:148] Top shape: 128 1 (128)
I0330 10:57:49.807171  2266 net.cpp:156] Memory required for data: 728700428
I0330 10:57:49.807176  2266 layer_factory.hpp:77] Creating layer loss_nose_confidence
I0330 10:57:49.807183  2266 net.cpp:91] Creating Layer loss_nose_confidence
I0330 10:57:49.807188  2266 net.cpp:425] loss_nose_confidence <- fc2_nose_confidence
I0330 10:57:49.807193  2266 net.cpp:425] loss_nose_confidence <- nose_visibility
I0330 10:57:49.807198  2266 net.cpp:399] loss_nose_confidence -> loss_nose_confidence
I0330 10:57:49.807225  2266 net.cpp:141] Setting up loss_nose_confidence
I0330 10:57:49.807231  2266 net.cpp:148] Top shape: (1)
I0330 10:57:49.807235  2266 net.cpp:151]     with loss weight 1
I0330 10:57:49.807242  2266 net.cpp:156] Memory required for data: 728700432
I0330 10:57:49.807245  2266 layer_factory.hpp:77] Creating layer fc1_left_mouth_confidence
I0330 10:57:49.807252  2266 net.cpp:91] Creating Layer fc1_left_mouth_confidence
I0330 10:57:49.807256  2266 net.cpp:425] fc1_left_mouth_confidence <- conv5_relu5_0_split_4
I0330 10:57:49.807263  2266 net.cpp:399] fc1_left_mouth_confidence -> fc1_left_mouth_confidence
I0330 10:57:49.811455  2266 net.cpp:141] Setting up fc1_left_mouth_confidence
I0330 10:57:49.811471  2266 net.cpp:148] Top shape: 128 256 (32768)
I0330 10:57:49.811473  2266 net.cpp:156] Memory required for data: 728831504
I0330 10:57:49.811483  2266 layer_factory.hpp:77] Creating layer relu_left_mouth_confidence
I0330 10:57:49.811492  2266 net.cpp:91] Creating Layer relu_left_mouth_confidence
I0330 10:57:49.811498  2266 net.cpp:425] relu_left_mouth_confidence <- fc1_left_mouth_confidence
I0330 10:57:49.811508  2266 net.cpp:386] relu_left_mouth_confidence -> fc1_left_mouth_confidence (in-place)
I0330 10:57:49.811517  2266 net.cpp:141] Setting up relu_left_mouth_confidence
I0330 10:57:49.811523  2266 net.cpp:148] Top shape: 128 256 (32768)
I0330 10:57:49.811527  2266 net.cpp:156] Memory required for data: 728962576
I0330 10:57:49.811542  2266 layer_factory.hpp:77] Creating layer drop1_left_mouth_confidence
I0330 10:57:49.811548  2266 net.cpp:91] Creating Layer drop1_left_mouth_confidence
I0330 10:57:49.811552  2266 net.cpp:425] drop1_left_mouth_confidence <- fc1_left_mouth_confidence
I0330 10:57:49.811559  2266 net.cpp:386] drop1_left_mouth_confidence -> fc1_left_mouth_confidence (in-place)
I0330 10:57:49.811580  2266 net.cpp:141] Setting up drop1_left_mouth_confidence
I0330 10:57:49.811585  2266 net.cpp:148] Top shape: 128 256 (32768)
I0330 10:57:49.811589  2266 net.cpp:156] Memory required for data: 729093648
I0330 10:57:49.811592  2266 layer_factory.hpp:77] Creating layer fc2_left_mouth_confidence
I0330 10:57:49.811611  2266 net.cpp:91] Creating Layer fc2_left_mouth_confidence
I0330 10:57:49.811615  2266 net.cpp:425] fc2_left_mouth_confidence <- fc1_left_mouth_confidence
I0330 10:57:49.811622  2266 net.cpp:399] fc2_left_mouth_confidence -> fc2_left_mouth_confidence
I0330 10:57:49.811703  2266 net.cpp:141] Setting up fc2_left_mouth_confidence
I0330 10:57:49.811710  2266 net.cpp:148] Top shape: 128 1 (128)
I0330 10:57:49.811712  2266 net.cpp:156] Memory required for data: 729094160
I0330 10:57:49.811719  2266 layer_factory.hpp:77] Creating layer loss_left_mouth_confidence
I0330 10:57:49.811727  2266 net.cpp:91] Creating Layer loss_left_mouth_confidence
I0330 10:57:49.811731  2266 net.cpp:425] loss_left_mouth_confidence <- fc2_left_mouth_confidence
I0330 10:57:49.811735  2266 net.cpp:425] loss_left_mouth_confidence <- mouth_visibility_left
I0330 10:57:49.811741  2266 net.cpp:399] loss_left_mouth_confidence -> loss_left_mouth_confidence
I0330 10:57:49.811771  2266 net.cpp:141] Setting up loss_left_mouth_confidence
I0330 10:57:49.811777  2266 net.cpp:148] Top shape: (1)
I0330 10:57:49.811779  2266 net.cpp:151]     with loss weight 1
I0330 10:57:49.811789  2266 net.cpp:156] Memory required for data: 729094164
I0330 10:57:49.811792  2266 layer_factory.hpp:77] Creating layer fc1_right_mouth_confidence
I0330 10:57:49.811803  2266 net.cpp:91] Creating Layer fc1_right_mouth_confidence
I0330 10:57:49.811808  2266 net.cpp:425] fc1_right_mouth_confidence <- conv5_relu5_0_split_5
I0330 10:57:49.811817  2266 net.cpp:399] fc1_right_mouth_confidence -> fc1_right_mouth_confidence
I0330 10:57:49.815104  2266 net.cpp:141] Setting up fc1_right_mouth_confidence
I0330 10:57:49.815117  2266 net.cpp:148] Top shape: 128 256 (32768)
I0330 10:57:49.815120  2266 net.cpp:156] Memory required for data: 729225236
I0330 10:57:49.815129  2266 layer_factory.hpp:77] Creating layer relu_right_mouth_confidence
I0330 10:57:49.815135  2266 net.cpp:91] Creating Layer relu_right_mouth_confidence
I0330 10:57:49.815142  2266 net.cpp:425] relu_right_mouth_confidence <- fc1_right_mouth_confidence
I0330 10:57:49.815148  2266 net.cpp:386] relu_right_mouth_confidence -> fc1_right_mouth_confidence (in-place)
I0330 10:57:49.815156  2266 net.cpp:141] Setting up relu_right_mouth_confidence
I0330 10:57:49.815162  2266 net.cpp:148] Top shape: 128 256 (32768)
I0330 10:57:49.815166  2266 net.cpp:156] Memory required for data: 729356308
I0330 10:57:49.815171  2266 layer_factory.hpp:77] Creating layer drop1_right_mouth_confidence
I0330 10:57:49.815176  2266 net.cpp:91] Creating Layer drop1_right_mouth_confidence
I0330 10:57:49.815181  2266 net.cpp:425] drop1_right_mouth_confidence <- fc1_right_mouth_confidence
I0330 10:57:49.815188  2266 net.cpp:386] drop1_right_mouth_confidence -> fc1_right_mouth_confidence (in-place)
I0330 10:57:49.815207  2266 net.cpp:141] Setting up drop1_right_mouth_confidence
I0330 10:57:49.815212  2266 net.cpp:148] Top shape: 128 256 (32768)
I0330 10:57:49.815217  2266 net.cpp:156] Memory required for data: 729487380
I0330 10:57:49.815220  2266 layer_factory.hpp:77] Creating layer fc2_right_mouth_confidence
I0330 10:57:49.815228  2266 net.cpp:91] Creating Layer fc2_right_mouth_confidence
I0330 10:57:49.815232  2266 net.cpp:425] fc2_right_mouth_confidence <- fc1_right_mouth_confidence
I0330 10:57:49.815240  2266 net.cpp:399] fc2_right_mouth_confidence -> fc2_right_mouth_confidence
I0330 10:57:49.815328  2266 net.cpp:141] Setting up fc2_right_mouth_confidence
I0330 10:57:49.815335  2266 net.cpp:148] Top shape: 128 1 (128)
I0330 10:57:49.815338  2266 net.cpp:156] Memory required for data: 729487892
I0330 10:57:49.815345  2266 layer_factory.hpp:77] Creating layer loss_right_mouth_confidence
I0330 10:57:49.815356  2266 net.cpp:91] Creating Layer loss_right_mouth_confidence
I0330 10:57:49.815359  2266 net.cpp:425] loss_right_mouth_confidence <- fc2_right_mouth_confidence
I0330 10:57:49.815364  2266 net.cpp:425] loss_right_mouth_confidence <- mouth_visibility_right
I0330 10:57:49.815371  2266 net.cpp:399] loss_right_mouth_confidence -> loss_right_mouth_confidence
I0330 10:57:49.815400  2266 net.cpp:141] Setting up loss_right_mouth_confidence
I0330 10:57:49.815405  2266 net.cpp:148] Top shape: (1)
I0330 10:57:49.815408  2266 net.cpp:151]     with loss weight 1
I0330 10:57:49.815418  2266 net.cpp:156] Memory required for data: 729487896
I0330 10:57:49.815421  2266 layer_factory.hpp:77] Creating layer fc1_smile
I0330 10:57:49.815428  2266 net.cpp:91] Creating Layer fc1_smile
I0330 10:57:49.815431  2266 net.cpp:425] fc1_smile <- conv5_relu5_0_split_6
I0330 10:57:49.815441  2266 net.cpp:399] fc1_smile -> fc1_smile
I0330 10:57:49.818655  2266 net.cpp:141] Setting up fc1_smile
I0330 10:57:49.818665  2266 net.cpp:148] Top shape: 128 256 (32768)
I0330 10:57:49.818666  2266 net.cpp:156] Memory required for data: 729618968
I0330 10:57:49.818673  2266 layer_factory.hpp:77] Creating layer relu_smile
I0330 10:57:49.818682  2266 net.cpp:91] Creating Layer relu_smile
I0330 10:57:49.818686  2266 net.cpp:425] relu_smile <- fc1_smile
I0330 10:57:49.818693  2266 net.cpp:386] relu_smile -> fc1_smile (in-place)
I0330 10:57:49.818701  2266 net.cpp:141] Setting up relu_smile
I0330 10:57:49.818706  2266 net.cpp:148] Top shape: 128 256 (32768)
I0330 10:57:49.818709  2266 net.cpp:156] Memory required for data: 729750040
I0330 10:57:49.818712  2266 layer_factory.hpp:77] Creating layer drop1_smile
I0330 10:57:49.818717  2266 net.cpp:91] Creating Layer drop1_smile
I0330 10:57:49.818722  2266 net.cpp:425] drop1_smile <- fc1_smile
I0330 10:57:49.818728  2266 net.cpp:386] drop1_smile -> fc1_smile (in-place)
I0330 10:57:49.818744  2266 net.cpp:141] Setting up drop1_smile
I0330 10:57:49.818749  2266 net.cpp:148] Top shape: 128 256 (32768)
I0330 10:57:49.818753  2266 net.cpp:156] Memory required for data: 729881112
I0330 10:57:49.818755  2266 layer_factory.hpp:77] Creating layer fc2_smile
I0330 10:57:49.818763  2266 net.cpp:91] Creating Layer fc2_smile
I0330 10:57:49.818766  2266 net.cpp:425] fc2_smile <- fc1_smile
I0330 10:57:49.818773  2266 net.cpp:399] fc2_smile -> fc2_smile
I0330 10:57:49.818845  2266 net.cpp:141] Setting up fc2_smile
I0330 10:57:49.818850  2266 net.cpp:148] Top shape: 128 1 (128)
I0330 10:57:49.818852  2266 net.cpp:156] Memory required for data: 729881624
I0330 10:57:49.818859  2266 layer_factory.hpp:77] Creating layer loss_smile
I0330 10:57:49.818864  2266 net.cpp:91] Creating Layer loss_smile
I0330 10:57:49.818868  2266 net.cpp:425] loss_smile <- fc2_smile
I0330 10:57:49.818872  2266 net.cpp:425] loss_smile <- smile
I0330 10:57:49.818881  2266 net.cpp:399] loss_smile -> loss_smile
…
