…
  phase: TRAIN
}
layer {
  name: "data"
  type: "HDF5Data"
  top: "data"
  top: "eye_visibility_left"
  top: "eye_visibility_right"
  top: "nose_visibility"
  top: "mouth_visibility_left"
  top: "mouth_visibility_right"
  top: "smile"
  top: "glasses"
  top: "left_eye"
  top: "right_eye"
  top: "nose"
  top: "left_mouth"
  top: "right_mouth"
  include {
    phase: TRAIN
  }
  hdf5_data_param {
    source: "/home/wzleong/Downloads/MTFL/train_complete_scaled_mean_subtracted_own_data_multiple_label_data_list.txt"
    batch_size: 128
    shuffle: true
  }
}
layer {
  name: "conv1"
  type: "Convolution"
  bottom: "data"
  top: "conv1"
  convolution_param {
    num_output: 64
    pad: 0
    kernel_size: 9
    stride: 2
  }
}
layer {
  name: "relu1"
  type: "ReLU"
  bottom: "conv1"
  top: "conv1"
}
layer {
  name: "pool1"
  type: "Pooling"
  bottom: "conv1"
  top: "pool1"
  pooling_param {
    pool: MAX
    kernel_size: 2
    stride: 2
  }
}
layer {
  name: "conv2_squeeze"
  type: "Convolution"
  bottom: "pool1"
  top: "conv2_squeeze"
  param {
    lr_mult: 1
    decay_mult: 1
  }
  param {
    lr_mult: 2
    decay_mult: 0
  }
  convolution_param {
    num_output: 32
    pad: 0
    kernel_size: 1
    stride: 1
  }
}
layer {
  name: "relu2_squeeze"
  type: "ReLU"
  bottom: "conv2_squeeze"
  top: "conv2_squeeze"
}
layer {
  name: "conv2_1"
  type: "Convolution"
  bottom: "conv2_squeeze"
  top: "conv2_1"
  param {
    lr_mult: 0
    decay_mult: 0
  }
  param {
    lr_mult: 0
    decay_mult: 0
  }
  convolution_param {
    num_output: 32
    pad: 1
    kernel_size: 3
    stride: 1
  }
}
layer {
  name: "relu2_1"
  type: "ReLU"
  bottom: "conv2_1"
  top: "conv2_1"
}
layer {
  name: "conv2_2"
  type: "Convolution"
  bottom: "conv2_1"
  top: "conv2_2"
  param {
    lr_mult: 0
    decay_mult: 0
  }
  param {
    lr_mult: 0
    decay_mult: 0
  }
  convolution_param {
    num_output: 32
    pad: 1
    kernel_size: 3
    stride: 1
  }
}
layer {
  name: "relu2_2"
  type: "ReLU"
  bottom: "conv2_2"
  top: "conv2_2"
}
layer {
  name: "conv2_3"
  type: "Convolution"
  bottom: "conv2_2"
  top: "conv2_3"
  param {
    lr_mult: 0
    decay_mult: 0
  }
  param {
    lr_mult: 0
    decay_mult: 0
  }
  convolution_param {
    num_output: 32
    pad: 1
    kernel_size: 3
    stride: 1
  }
}
layer {
  name: "relu2_3"
  type: "ReLU"
  bottom: "conv2_3"
  top: "conv2_3"
}
layer {
  name: "conv2_4"
  type: "Convolution"
  bottom: "conv2_3"
  top: "conv2_4"
  param {
    lr_mult: 0
    decay_mult: 0
  }
  param {
    lr_mult: 0
    decay_mult: 0
  }
  convolution_param {
    num_output: 64
    pad: 1
    kernel_size: 3
    stride: 1
  }
}
layer {
  name: "relu2_4"
  type: "ReLU"
  bottom: "conv2_4"
  top: "conv2_4"
}
layer {
  name: "conv2_sub"
  type: "Convolution"
  bottom: "conv2_squeeze"
  top: "conv2_sub"
  param {
    lr_mult: 0
    decay_mult: 0
  }
  param {
    lr_mult: 0
    decay_mult: 0
  }
  convolution_param {
    num_output: 64
    pad: 4
    kernel_size: 3
    stride: 1
    dilation: 4
  }
}
layer {
  name: "relu2_sub"
  type: "ReLU"
  bottom: "conv2_sub"
  top: "conv2_sub"
}
layer {
  name: "concat_conv2"
  type: "Concat"
  bottom: "conv2_sub"
  bottom: "conv2_4"
  top: "concat_conv2"
  concat_param {
    axis: 1
  }
}
layer {
  name: "pool2"
  type: "Pooling"
  bottom: "concat_conv2"
  top: "pool2"
  pooling_param {
    pool: MAX
    kernel_size: 2
    stride: 2
  }
}
layer {
  name: "conv3_squeeze"
  type: "Convolution"
  bottom: "pool2"
  top: "conv3_squeeze"
  param {
    lr_mult: 1
    decay_mult: 1
  }
  param {
    lr_mult: 2
    decay_mult: 0
  }
  convolution_param {
    num_output: 64
    pad: 0
    kernel_size: 1
    stride: 1
  }
}
layer {
  name: "relu3_squeeze"
  type: "ReLU"
  bottom: "conv3_squeeze"
  top: "conv3_squeeze"
}
layer {
  name: "conv3_1"
  type: "Convolution"
  bottom: "conv3_squeeze"
  top: "conv3_1"
  param {
    lr_mult: 0
    decay_mult: 0
  }
  param {
    lr_mult: 0
    decay_mult: 0
  }
  convolution_param {
    num_output: 64
    pad: 1
    kernel_size: 3
    stride: 1
  }
}
layer {
  name: "relu3_1"
  type: "ReLU"
  bottom: "conv3_1"
  top: "conv3_1"
}
layer {
  name: "conv3_2"
  type: "Convolution"
  bottom: "conv3_1"
  top: "conv3_2"
  param {
    lr_mult: 1
    decay_mult: 1
  }
  param {
    lr_mult: 2
    decay_mult: 0
  }
  convolution_param {
    num_output: 64
    pad: 1
    kernel_size: 3
    stride: 1
  }
}
layer {
  name: "relu3_2"
  type: "ReLU"
  bottom: "conv3_2"
  top: "conv3_2"
}
layer {
  name: "conv3_sub"
  type: "Convolution"
  bottom: "conv3_squeeze"
  top: "conv3_sub"
  param {
    lr_mult: 1
    decay_mult: 1
  }
  param {
    lr_mult: 2
    decay_mult: 0
  }
  convolution_param {
    num_output: 64
    pad: 2
    kernel_size: 3
    stride: 1
    dilation: 2
  }
}
layer {
  name: "relu3_sub"
  type: "ReLU"
  bottom: "conv3_sub"
  top: "conv3_sub"
}
layer {
  name: "concat_conv3"
  type: "Concat"
  bottom: "conv3_sub"
  bottom: "conv3_2"
  top: "concat_conv3"
  concat_param {
    axis: 1
  }
}
layer {
  name: "pool3"
  type: "Pooling"
  bottom: "concat_conv3"
  top: "pool3"
  pooling_param {
    pool: MAX
    kernel_size: 2
    stride: 2
  }
}
layer {
  name: "conv4_squeeze"
  type: "Convolution"
  bottom: "pool3"
  top: "conv4_squeeze"
  param {
    lr_mult: 1
    decay_mult: 1
  }
  param {
    lr_mult: 2
    decay_mult: 0
  }
  convolution_param {
    num_output: 64
    pad: 0
    kernel_size: 1
    stride: 1
  }
}
layer {
  name: "relu4_squeeze"
  type: "ReLU"
  bottom: "conv4_squeeze"
  top: "conv4_squeeze"
}
layer {
  name: "conv4_1"
  type: "Convolution"
  bottom: "conv4_squeeze"
  top: "conv4_1"
  param {
    lr_mult: 1
    decay_mult: 1
  }
  param {
    lr_mult: 2
    decay_mult: 0
  }
  convolution_param {
    num_output: 128
    pad: 0
    kernel_size: 3
    stride: 1
  }
}
layer {
  name: "relu4_1"
  type: "ReLU"
  bottom: "conv4_1"
  top: "conv4_1"
}
layer {
  name: "conv4_2"
  type: "Convolution"
  bottom: "conv4_1"
  top: "conv4_2"
  param {
    lr_mult: 1
    decay_mult: 1
  }
  param {
    lr_mult: 2
    decay_mult: 0
  }
  convolution_param {
    num_output: 128
    pad: 0
    kernel_size: 3
    stride: 1
  }
}
layer {
  name: "relu4_2"
  type: "ReLU"
  bottom: "conv4_2"
  top: "conv4_2"
}
layer {
  name: "conv4_3"
  type: "Convolution"
  bottom: "conv4_2"
  top: "conv4_3"
  param {
    lr_mult: 1
    decay_mult: 1
  }
  param {
    lr_mult: 2
    decay_mult: 0
  }
  convolution_param {
    num_output: 256
    pad: 0
    kernel_size: 3
    stride: 1
  }
}
layer {
  name: "relu4_3"
  type: "ReLU"
  bottom: "conv4_3"
  top: "conv4_3"
}
layer {
  name: "conv5"
  type: "Convolution"
  bottom: "conv4_3"
  top: "conv5"
  param {
    lr_mult: 1
    decay_mult: 1
  }
  param {
    lr_mult: 2
    decay_mult: 0
  }
  convolution_param {
    num_output: 512
    pad: 0
    kernel_size: 1
    stride: 1
  }
}
layer {
  name: "relu5"
  type: "ReLU"
  bottom: "conv5"
  top: "conv5"
}
layer {
  name: "fc1_left_eye_confidence"
  type: "InnerProduct"
  bottom: "conv5"
  top: "fc1_left_eye_confidence"
  param {
    lr_mult: 1
    decay_mult: 1
  }
  param {
    lr_mult: 2
    decay_mult: 0
  }
  inner_product_param {
    num_output: 256
  }
}
layer {
  name: "relu_left_eye_confidence"
  type: "ReLU"
  bottom: "fc1_left_eye_confidence"
  top: "fc1_left_eye_confidence"
}
layer {
  name: "drop1_left_eye_confidence"
  type: "Dropout"
  bottom: "fc1_left_eye_confidence"
  top: "fc1_left_eye_confidence"
  dropout_param {
    dropout_ratio: 0.5
  }
}
layer {
  name: "fc2_left_eye_confidence"
  type: "InnerProduct"
  bottom: "fc1_left_eye_confidence"
  top: "fc2_left_eye_confidence"
  param {
    lr_mult: 1
    decay_mult: 1
  }
  param {
    lr_mult: 2
    decay_mult: 0
  }
  inner_product_param {
    num_output: 1
  }
}
layer {
  name: "loss_left_eye_confidence"
  type: "EuclideanLoss"
  bottom: "fc2_left_eye_confidence"
  bottom: "eye_visibility_left"
  top: "loss_left_eye_confidence"
}
layer {
  name: "fc1_right_eye_confidence"
  type: "InnerProduct"
  bottom: "conv5"
  top: "fc1_right_eye_confidence"
  param {
    lr_mult: 1
    decay_mult: 1
  }
  param {
    lr_mult: 2
    decay_mult: 0
  }
  inner_product_param {
    num_output: 256
  }
}
layer {
  name: "relu_right_eye_confidence"
  type: "ReLU"
  bottom: "fc1_right_eye_confidence"
  top: "fc1_right_eye_confidence"
}
layer {
  name: "drop1_right_eye_confidence"
  type: "Dropout"
  bottom: "fc1_right_eye_confidence"
  top: "fc1_right_eye_confidence"
  dropout_param {
    dropout_ratio: 0.5
  }
}
layer {
  name: "fc2_right_eye_confidence"
  type: "InnerProduct"
  bottom: "fc1_right_eye_confidence"
  top: "fc2_right_eye_confidence"
  param {
    lr_mult: 1
    decay_mult: 1
  }
  param {
    lr_mult: 2
    decay_mult: 0
  }
  inner_product_param {
    num_output: 1
  }
}
layer {
  name: "loss_right_eye_confidence"
  type: "EuclideanLoss"
  bottom: "fc2_right_eye_confidence"
  bottom: "eye_visibility_right"
  top: "loss_right_eye_confidence"
}
layer {
  name: "fc1_glasses"
  type: "InnerProduct"
  bottom: "conv5"
  top: "fc1_glasses"
  param {
    lr_mult: 1
    decay_mult: 1
  }
  param {
    lr_mult: 2
    decay_mult: 0
  }
  inner_product_param {
    num_output: 256
  }
}
layer {
  name: "relu_glasses"
  type: "ReLU"
  bottom: "fc1_glasses"
  top: "fc1_glasses"
}
layer {
  name: "drop1_glasses"
  type: "Dropout"
  bottom: "fc1_glasses"
  top: "fc1_glasses"
  dropout_param {
    dropout_ratio: 0.5
  }
}
layer {
  name: "fc2_glasses"
  type: "InnerProduct"
  bottom: "fc1_glasses"
  top: "fc2_glasses"
  param {
    lr_mult: 1
    decay_mult: 1
  }
  param {
    lr_mult: 2
    decay_mult: 0
  }
  inner_product_param {
    num_output: 1
  }
}
layer {
  name: "loss_glasses"
  type: "EuclideanLoss"
  bottom: "fc2_glasses"
  bottom: "glasses"
  top: "loss_glasses"
}
layer {
  name: "fc1_nose_confidence"
  type: "InnerProduct"
  bottom: "conv5"
  top: "fc1_nose_confidence"
  param {
    lr_mult: 1
    decay_mult: 1
  }
  param {
    lr_mult: 2
    decay_mult: 0
  }
  inner_product_param {
    num_output: 256
  }
}
layer {
  name: "relu_nose_confidence"
  type: "ReLU"
  bottom: "fc1_nose_confidence"
  top: "fc1_nose_confidence"
}
layer {
  name: "drop1_nose_confidence"
  type: "Dropout"
  bottom: "fc1_nose_confidence"
  top: "fc1_nose_confidence"
  dropout_param {
    dropout_ratio: 0.5
  }
}
layer {
  name: "fc2_nose_confidence"
  type: "InnerProduct"
  bottom: "fc1_nose_confidence"
  top: "fc2_nose_confidence"
  param {
    lr_mult: 1
    decay_mult: 1
  }
  param {
    lr_mult: 2
    decay_mult: 0
  }
  inner_product_param {
    num_output: 1
  }
}
layer {
  name: "loss_nose_confidence"
  type: "EuclideanLoss"
  bottom: "fc2_nose_confidence"
  bottom: "nose_visibility"
  top: "loss_nose_confidence"
}
layer {
  name: "fc1_left_mouth_confidence"
  type: "InnerProduct"
  bottom: "conv5"
  top: "fc1_left_mouth_confidence"
  param {
    lr_mult: 1
    decay_mult: 1
  }
  param {
    lr_mult: 2
    decay_mult: 0
  }
  inner_product_param {
    num_output: 256
  }
}
layer {
  name: "relu_left_mouth_confidence"
  type: "ReLU"
  bottom: "fc1_left_mouth_confidence"
  top: "fc1_left_mouth_confidence"
}
layer {
  name: "drop1_left_mouth_confidence"
  type: "Dropout"
  bottom: "fc1_left_mouth_confidence"
  top: "fc1_left_mouth_confidence"
  dropout_param {
    dropout_ratio: 0.5
  }
}
layer {
  name: "fc2_left_mouth_confidence"
  type: "InnerProduct"
  bottom: "fc1_left_mouth_confidence"
  top: "fc2_left_mouth_confidence"
  param {
    lr_mult: 1
    decay_mult: 1
  }
  param {
    lr_mult: 2
    decay_mult: 0
  }
  inner_product_param {
    num_output: 1
  }
}
layer {
  name: "loss_left_mouth_confidence"
  type: "EuclideanLoss"
  bottom: "fc2_left_mouth_confidence"
  bottom: "mouth_visibility_left"
  top: "loss_left_mouth_confidence"
}
layer {
  name: "fc1_right_mouth_confidence"
  type: "InnerProduct"
  bottom: "conv5"
  top: "fc1_right_mouth_confidence"
  param {
    lr_mult: 1
    decay_mult: 1
  }
  param {
    lr_mult: 2
    decay_mult: 0
  }
  inner_product_param {
    num_output: 256
  }
}
layer {
  name: "relu_right_mouth_confidence"
  type: "ReLU"
  bottom: "fc1_right_mouth_confidence"
  top: "fc1_right_mouth_confidence"
}
layer {
  name: "drop1_right_mouth_confidence"
  type: "Dropout"
  bottom: "fc1_right_mouth_confidence"
  top: "fc1_right_mouth_confidence"
  dropout_param {
    dropout_ratio: 0.5
  }
}
layer {
  name: "fc2_right_mouth_confidence"
  type: "InnerProduct"
  bottom: "fc1_right_mouth_confidence"
  top: "fc2_right_mouth_confidence"
  param {
    lr_mult: 1
    decay_mult: 1
  }
  param {
    lr_mult: 2
    decay_mult: 0
  }
  inner_product_param {
    num_output: 1
  }
}
layer {
  name: "loss_right_mouth_confidence"
  type: "EuclideanLoss"
  bottom: "fc2_right_mouth_confidence"
  bottom: "mouth_visibility_right"
  top: "loss_right_mouth_confidence"
}
layer {
  name: "fc1_smile"
  type: "InnerProduct"
  bottom: "conv5"
  top: "fc1_smile"
  param {
    lr_mult: 1
    decay_mult: 1
  }
  param {
    lr_mult: 2
    decay_mult: 0
  }
  inner_product_param {
    num_output: 256
  }
}
layer {
  name: "relu_smile"
  type: "ReLU"
  bottom: "fc1_smile"
  top: "fc1_smile"
}
layer {
  name: "drop1_smile"
  type: "Dropout"
  bottom: "fc1_smile"
  top: "fc1_smile"
  dropout_param {
    dropout_ratio: 0.5
  }
}
layer {
  name: "fc2_smile"
  type: "InnerProduct"
  bottom: "fc1_smile"
  top: "fc2_smile"
  param {
    lr_mult: 1
    decay_mult: 1
  }
  param {
    lr_mult: 2
    decay_mult: 0
  }
  inner_product_param {
    num_output: 1
  }
}
layer {
  name: "loss_smile"
  type: "EuclideanLoss"
  bottom: "fc2_smile"
  bottom: "smile"
  top: "loss_smile"
}
layer {
  name: "fc1_left_eye_coordinate"
  type: "InnerProduct"
  bottom: "conv5"
  top: "fc1_left_eye_coordinate"
  param {
    lr_mult: 1
    decay_mult: 1
  }
  param {
    lr_mult: 2
    decay_mult: 0
  }
  inner_product_param {
    num_output: 512
    weight_filler {
      type: "xavier"
    }
    bias_filler {
      type: "constant"
    }
  }
}
layer {
  name: "drop1_left_eye_coordinate"
  type: "Dropout"
  bottom: "fc1_left_eye_coordinate"
  top: "fc1_left_eye_coordinate"
  dropout_param {
    dropout_ratio: 0.5
  }
}
layer {
  name: "fc2_left_eye_coordinate"
  type: "InnerProduct"
  bottom: "fc1_left_eye_coordinate"
  top: "fc2_left_eye_coordinate"
  param {
    lr_mult: 1
    decay_mult: 1
  }
  param {
    lr_mult: 2
    decay_mult: 0
  }
  inner_product_param {
    num_output: 2
    weight_filler {
      type: "xavier"
    }
    bias_filler {
      type: "constant"
    }
  }
}
layer {
  name: "loss_left_eye_coordinate"
  type: "EuclideanLoss"
  bottom: "fc2_left_eye_coordinate"
  bottom: "left_eye"
  top: "loss_left_eye_coordinate"
}
layer {
  name: "fc1_right_eye_coordinate"
  type: "InnerProduct"
  bottom: "conv5"
  top: "fc1_right_eye_coordinate"
  param {
    lr_mult: 1
    decay_mult: 1
  }
  param {
    lr_mult: 2
    decay_mult: 0
  }
  inner_product_param {
    num_output: 512
    weight_filler {
      type: "xavier"
    }
    bias_filler {
      type: "constant"
    }
  }
}
layer {
  name: "drop1_right_eye_coordinate"
  type: "Dropout"
  bottom: "fc1_right_eye_coordinate"
  top: "fc1_right_eye_coordinate"
  dropout_param {
    dropout_ratio: 0.5
  }
}
layer {
  name: "fc2_right_eye_coordinate"
  type: "InnerProduct"
  bottom: "fc1_right_eye_coordinate"
  top: "fc2_right_eye_coordinate"
  param {
    lr_mult: 1
    decay_mult: 1
  }
  param {
    lr_mult: 2
    decay_mult: 0
  }
  inner_product_param {
    num_output: 2
    weight_filler {
      type: "xavier"
    }
    bias_filler {
      type: "constant"
    }
  }
}
layer {
  name: "loss_right_eye_coordinate"
  type: "EuclideanLoss"
  bottom: "fc2_right_eye_coordinate"
  bottom: "right_eye"
  top: "loss_right_eye_coordinate"
}
layer {
  name: "fc1_nose_coordinate"
  type: "InnerProduct"
  bottom: "conv5"
  top: "fc1_nose_coordinate"
  param {
    lr_mult: 1
    decay_mult: 1
  }
  param {
    lr_mult: 2
    decay_mult: 0
  }
  inner_product_param {
    num_output: 512
    weight_filler {
      type: "xavier"
    }
    bias_filler {
      type: "constant"
    }
  }
}
layer {
  name: "drop1_nose_coordinate"
  type: "Dropout"
  bottom: "fc1_nose_coordinate"
  top: "fc1_nose_coordinate"
  dropout_param {
    dropout_ratio: 0.5
  }
}
layer {
  name: "fc2_nose_coordinate"
  type: "InnerProduct"
  bottom: "fc1_nose_coordinate"
  top: "fc2_nose_coordinate"
  param {
    lr_mult: 1
    decay_mult: 1
  }
  param {
    lr_mult: 2
    decay_mult: 0
  }
  inner_product_param {
    num_output: 2
    weight_filler {
      type: "xavier"
    }
    bias_filler {
      type: "constant"
    }
  }
}
layer {
  name: "loss_nose_coordinate"
  type: "EuclideanLoss"
  bottom: "fc2_nose_coordinate"
  bottom: "nose"
  top: "loss_nose_coordinate"
}
layer {
  name: "fc1_left_mouth_coordinate"
  type: "InnerProduct"
  bottom: "conv5"
  top: "fc1_left_mouth_coordinate"
  param {
    lr_mult: 1
    decay_mult: 1
  }
  param {
    lr_mult: 2
    decay_mult: 0
  }
  inner_product_param {
    num_output: 512
    weight_filler {
      type: "xavier"
    }
    bias_filler {
      type: "constant"
    }
  }
}
layer {
  name: "drop1_left_mouth_coordinate"
  type: "Dropout"
  bottom: "fc1_left_mouth_coordinate"
  top: "fc1_left_mouth_coordinate"
  dropout_param {
    dropout_ratio: 0.5
  }
}
layer {
  name: "fc2_left_mouth_coordinate"
  type: "InnerProduct"
  bottom: "fc1_left_mouth_coordinate"
  top: "fc2_left_mouth_coordinate"
  param {
    lr_mult: 1
    decay_mult: 1
  }
  param {
    lr_mult: 2
    decay_mult: 0
  }
  inner_product_param {
    num_output: 2
    weight_filler {
      type: "xavier"
    }
    bias_filler {
      type: "constant"
    }
  }
}
layer {
  name: "loss_left_mouth_coordinate"
  type: "EuclideanLoss"
  bottom: "fc2_left_mouth_coordinate"
  bottom: "left_mouth"
  top: "loss_left_mouth_coordinate"
}
layer {
  name: "fc1_right_mouth_coordinate"
  type: "InnerProduct"
  bottom: "conv5"
  top: "fc1_right_mouth_coordinate"
  param {
    lr_mult: 1
    decay_mult: 1
  }
  param {
    lr_mult: 2
    decay_mult: 0
  }
  inner_product_param {
    num_output: 512
    weight_filler {
      type: "xavier"
    }
    bias_filler {
      type: "constant"
    }
  }
}
layer {
  name: "drop1_right_mouth_coordinate"
  type: "Dropout"
  bottom: "fc1_right_mouth_coordinate"
  top: "fc1_right_mouth_coordinate"
  dropout_param {
    dropout_ratio: 0.5
  }
}
layer {
  name: "fc2_right_mouth_coordinate"
  type: "InnerProduct"
  bottom: "fc1_right_mouth_coordinate"
  top: "fc2_right_mouth_coordinate"
  param {
    lr_mult: 1
    decay_mult: 1
  }
  param {
    lr_mult: 2
    decay_mult: 0
  }
  inner_product_param {
    num_output: 2
    weight_filler {
      type: "xavier"
    }
    bias_filler {
      type: "constant"
    }
  }
}
layer {
  name: "loss_right_mouth_coordinate"
  type: "EuclideanLoss"
  bottom: "fc2_right_mouth_coordinate"
  bottom: "right_mouth"
  top: "loss_right_mouth_coordinate"
}
I0331 00:28:49.438513 11408 layer_factory.hpp:77] Creating layer data
I0331 00:28:49.438544 11408 net.cpp:91] Creating Layer data
I0331 00:28:49.438570 11408 net.cpp:399] data -> data
I0331 00:28:49.438626 11408 net.cpp:399] data -> eye_visibility_left
I0331 00:28:49.438634 11408 net.cpp:399] data -> eye_visibility_right
I0331 00:28:49.438657 11408 net.cpp:399] data -> nose_visibility
I0331 00:28:49.438683 11408 net.cpp:399] data -> mouth_visibility_left
I0331 00:28:49.438691 11408 net.cpp:399] data -> mouth_visibility_right
I0331 00:28:49.438695 11408 net.cpp:399] data -> smile
I0331 00:28:49.438701 11408 net.cpp:399] data -> glasses
I0331 00:28:49.438719 11408 net.cpp:399] data -> left_eye
I0331 00:28:49.438750 11408 net.cpp:399] data -> right_eye
I0331 00:28:49.438771 11408 net.cpp:399] data -> nose
I0331 00:28:49.438776 11408 net.cpp:399] data -> left_mouth
I0331 00:28:49.438802 11408 net.cpp:399] data -> right_mouth
I0331 00:28:49.438822 11408 hdf5_data_layer.cpp:79] Loading list of HDF5 filenames from: /home/wzleong/Downloads/MTFL/train_complete_scaled_mean_subtracted_own_data_multiple_label_data_list.txt
I0331 00:28:49.438880 11408 hdf5_data_layer.cpp:93] Number of HDF5 files: 12
I0331 00:28:49.439721 11408 hdf5.cpp:32] Datatype class: H5T_FLOAT
I0331 00:28:49.884791 11408 net.cpp:141] Setting up data
I0331 00:28:49.884814 11408 net.cpp:148] Top shape: 128 1 128 128 (2097152)
I0331 00:28:49.884819 11408 net.cpp:148] Top shape: 128 1 (128)
I0331 00:28:49.884821 11408 net.cpp:148] Top shape: 128 1 (128)
I0331 00:28:49.884824 11408 net.cpp:148] Top shape: 128 1 (128)
I0331 00:28:49.884827 11408 net.cpp:148] Top shape: 128 1 (128)
I0331 00:28:49.884830 11408 net.cpp:148] Top shape: 128 1 (128)
I0331 00:28:49.884834 11408 net.cpp:148] Top shape: 128 1 (128)
I0331 00:28:49.884836 11408 net.cpp:148] Top shape: 128 1 (128)
I0331 00:28:49.884838 11408 net.cpp:148] Top shape: 128 2 (256)
I0331 00:28:49.884841 11408 net.cpp:148] Top shape: 128 2 (256)
I0331 00:28:49.884845 11408 net.cpp:148] Top shape: 128 2 (256)
I0331 00:28:49.884847 11408 net.cpp:148] Top shape: 128 2 (256)
I0331 00:28:49.884850 11408 net.cpp:148] Top shape: 128 2 (256)
I0331 00:28:49.884851 11408 net.cpp:156] Memory required for data: 8397312
I0331 00:28:49.884860 11408 layer_factory.hpp:77] Creating layer conv1
I0331 00:28:49.884873 11408 net.cpp:91] Creating Layer conv1
I0331 00:28:49.884879 11408 net.cpp:425] conv1 <- data
I0331 00:28:49.884889 11408 net.cpp:399] conv1 -> conv1
I0331 00:28:49.885814 11408 net.cpp:141] Setting up conv1
I0331 00:28:49.885825 11408 net.cpp:148] Top shape: 128 64 60 60 (29491200)
I0331 00:28:49.885828 11408 net.cpp:156] Memory required for data: 126362112
I0331 00:28:49.885844 11408 layer_factory.hpp:77] Creating layer relu1
I0331 00:28:49.885852 11408 net.cpp:91] Creating Layer relu1
I0331 00:28:49.885855 11408 net.cpp:425] relu1 <- conv1
I0331 00:28:49.885859 11408 net.cpp:386] relu1 -> conv1 (in-place)
I0331 00:28:49.885865 11408 net.cpp:141] Setting up relu1
I0331 00:28:49.885869 11408 net.cpp:148] Top shape: 128 64 60 60 (29491200)
I0331 00:28:49.885874 11408 net.cpp:156] Memory required for data: 244326912
I0331 00:28:49.885876 11408 layer_factory.hpp:77] Creating layer pool1
I0331 00:28:49.885880 11408 net.cpp:91] Creating Layer pool1
I0331 00:28:49.885885 11408 net.cpp:425] pool1 <- conv1
I0331 00:28:49.885888 11408 net.cpp:399] pool1 -> pool1
I0331 00:28:49.885936 11408 net.cpp:141] Setting up pool1
I0331 00:28:49.885941 11408 net.cpp:148] Top shape: 128 64 30 30 (7372800)
I0331 00:28:49.885943 11408 net.cpp:156] Memory required for data: 273818112
I0331 00:28:49.885951 11408 layer_factory.hpp:77] Creating layer conv2_squeeze
I0331 00:28:49.885962 11408 net.cpp:91] Creating Layer conv2_squeeze
I0331 00:28:49.885964 11408 net.cpp:425] conv2_squeeze <- pool1
I0331 00:28:49.885970 11408 net.cpp:399] conv2_squeeze -> conv2_squeeze
I0331 00:28:49.886497 11408 net.cpp:141] Setting up conv2_squeeze
I0331 00:28:49.886507 11408 net.cpp:148] Top shape: 128 32 30 30 (3686400)
I0331 00:28:49.886509 11408 net.cpp:156] Memory required for data: 288563712
I0331 00:28:49.886518 11408 layer_factory.hpp:77] Creating layer relu2_squeeze
I0331 00:28:49.886521 11408 net.cpp:91] Creating Layer relu2_squeeze
I0331 00:28:49.886523 11408 net.cpp:425] relu2_squeeze <- conv2_squeeze
I0331 00:28:49.886528 11408 net.cpp:386] relu2_squeeze -> conv2_squeeze (in-place)
I0331 00:28:49.886533 11408 net.cpp:141] Setting up relu2_squeeze
I0331 00:28:49.886536 11408 net.cpp:148] Top shape: 128 32 30 30 (3686400)
I0331 00:28:49.886538 11408 net.cpp:156] Memory required for data: 303309312
I0331 00:28:49.886543 11408 layer_factory.hpp:77] Creating layer conv2_squeeze_relu2_squeeze_0_split
I0331 00:28:49.886564 11408 net.cpp:91] Creating Layer conv2_squeeze_relu2_squeeze_0_split
I0331 00:28:49.886566 11408 net.cpp:425] conv2_squeeze_relu2_squeeze_0_split <- conv2_squeeze
I0331 00:28:49.886570 11408 net.cpp:399] conv2_squeeze_relu2_squeeze_0_split -> conv2_squeeze_relu2_squeeze_0_split_0
I0331 00:28:49.886579 11408 net.cpp:399] conv2_squeeze_relu2_squeeze_0_split -> conv2_squeeze_relu2_squeeze_0_split_1
I0331 00:28:49.886611 11408 net.cpp:141] Setting up conv2_squeeze_relu2_squeeze_0_split
I0331 00:28:49.886618 11408 net.cpp:148] Top shape: 128 32 30 30 (3686400)
I0331 00:28:49.886622 11408 net.cpp:148] Top shape: 128 32 30 30 (3686400)
I0331 00:28:49.886626 11408 net.cpp:156] Memory required for data: 332800512
I0331 00:28:49.886631 11408 layer_factory.hpp:77] Creating layer conv2_1
I0331 00:28:49.886638 11408 net.cpp:91] Creating Layer conv2_1
I0331 00:28:49.886643 11408 net.cpp:425] conv2_1 <- conv2_squeeze_relu2_squeeze_0_split_0
I0331 00:28:49.886648 11408 net.cpp:399] conv2_1 -> conv2_1
I0331 00:28:49.886831 11408 net.cpp:141] Setting up conv2_1
I0331 00:28:49.886837 11408 net.cpp:148] Top shape: 128 32 30 30 (3686400)
I0331 00:28:49.886839 11408 net.cpp:156] Memory required for data: 347546112
I0331 00:28:49.886847 11408 layer_factory.hpp:77] Creating layer relu2_1
I0331 00:28:49.886852 11408 net.cpp:91] Creating Layer relu2_1
I0331 00:28:49.886857 11408 net.cpp:425] relu2_1 <- conv2_1
I0331 00:28:49.886859 11408 net.cpp:386] relu2_1 -> conv2_1 (in-place)
I0331 00:28:49.886865 11408 net.cpp:141] Setting up relu2_1
I0331 00:28:49.886870 11408 net.cpp:148] Top shape: 128 32 30 30 (3686400)
I0331 00:28:49.886873 11408 net.cpp:156] Memory required for data: 362291712
I0331 00:28:49.886874 11408 layer_factory.hpp:77] Creating layer conv2_2
I0331 00:28:49.886879 11408 net.cpp:91] Creating Layer conv2_2
I0331 00:28:49.886883 11408 net.cpp:425] conv2_2 <- conv2_1
I0331 00:28:49.886888 11408 net.cpp:399] conv2_2 -> conv2_2
I0331 00:28:49.887059 11408 net.cpp:141] Setting up conv2_2
I0331 00:28:49.887064 11408 net.cpp:148] Top shape: 128 32 30 30 (3686400)
I0331 00:28:49.887068 11408 net.cpp:156] Memory required for data: 377037312
I0331 00:28:49.887073 11408 layer_factory.hpp:77] Creating layer relu2_2
I0331 00:28:49.887075 11408 net.cpp:91] Creating Layer relu2_2
I0331 00:28:49.887078 11408 net.cpp:425] relu2_2 <- conv2_2
I0331 00:28:49.887081 11408 net.cpp:386] relu2_2 -> conv2_2 (in-place)
I0331 00:28:49.887085 11408 net.cpp:141] Setting up relu2_2
I0331 00:28:49.887089 11408 net.cpp:148] Top shape: 128 32 30 30 (3686400)
I0331 00:28:49.887090 11408 net.cpp:156] Memory required for data: 391782912
I0331 00:28:49.887094 11408 layer_factory.hpp:77] Creating layer conv2_3
I0331 00:28:49.887099 11408 net.cpp:91] Creating Layer conv2_3
I0331 00:28:49.887100 11408 net.cpp:425] conv2_3 <- conv2_2
I0331 00:28:49.887104 11408 net.cpp:399] conv2_3 -> conv2_3
I0331 00:28:49.887275 11408 net.cpp:141] Setting up conv2_3
I0331 00:28:49.887281 11408 net.cpp:148] Top shape: 128 32 30 30 (3686400)
I0331 00:28:49.887284 11408 net.cpp:156] Memory required for data: 406528512
I0331 00:28:49.887290 11408 layer_factory.hpp:77] Creating layer relu2_3
I0331 00:28:49.887295 11408 net.cpp:91] Creating Layer relu2_3
I0331 00:28:49.887296 11408 net.cpp:425] relu2_3 <- conv2_3
I0331 00:28:49.887300 11408 net.cpp:386] relu2_3 -> conv2_3 (in-place)
I0331 00:28:49.887303 11408 net.cpp:141] Setting up relu2_3
I0331 00:28:49.887306 11408 net.cpp:148] Top shape: 128 32 30 30 (3686400)
I0331 00:28:49.887308 11408 net.cpp:156] Memory required for data: 421274112
I0331 00:28:49.887310 11408 layer_factory.hpp:77] Creating layer conv2_4
I0331 00:28:49.887315 11408 net.cpp:91] Creating Layer conv2_4
I0331 00:28:49.887318 11408 net.cpp:425] conv2_4 <- conv2_3
I0331 00:28:49.887322 11408 net.cpp:399] conv2_4 -> conv2_4
I0331 00:28:49.887504 11408 net.cpp:141] Setting up conv2_4
I0331 00:28:49.887509 11408 net.cpp:148] Top shape: 128 64 30 30 (7372800)
I0331 00:28:49.887512 11408 net.cpp:156] Memory required for data: 450765312
I0331 00:28:49.887516 11408 layer_factory.hpp:77] Creating layer relu2_4
I0331 00:28:49.887527 11408 net.cpp:91] Creating Layer relu2_4
I0331 00:28:49.887531 11408 net.cpp:425] relu2_4 <- conv2_4
I0331 00:28:49.887534 11408 net.cpp:386] relu2_4 -> conv2_4 (in-place)
I0331 00:28:49.887538 11408 net.cpp:141] Setting up relu2_4
I0331 00:28:49.887542 11408 net.cpp:148] Top shape: 128 64 30 30 (7372800)
I0331 00:28:49.887543 11408 net.cpp:156] Memory required for data: 480256512
I0331 00:28:49.887545 11408 layer_factory.hpp:77] Creating layer conv2_sub
I0331 00:28:49.887552 11408 net.cpp:91] Creating Layer conv2_sub
I0331 00:28:49.887554 11408 net.cpp:425] conv2_sub <- conv2_squeeze_relu2_squeeze_0_split_1
I0331 00:28:49.887558 11408 net.cpp:399] conv2_sub -> conv2_sub
I0331 00:28:49.887743 11408 net.cpp:141] Setting up conv2_sub
I0331 00:28:49.887750 11408 net.cpp:148] Top shape: 128 64 30 30 (7372800)
I0331 00:28:49.887753 11408 net.cpp:156] Memory required for data: 509747712
I0331 00:28:49.887756 11408 layer_factory.hpp:77] Creating layer relu2_sub
I0331 00:28:49.887761 11408 net.cpp:91] Creating Layer relu2_sub
I0331 00:28:49.887764 11408 net.cpp:425] relu2_sub <- conv2_sub
I0331 00:28:49.887768 11408 net.cpp:386] relu2_sub -> conv2_sub (in-place)
I0331 00:28:49.887773 11408 net.cpp:141] Setting up relu2_sub
I0331 00:28:49.887775 11408 net.cpp:148] Top shape: 128 64 30 30 (7372800)
I0331 00:28:49.887778 11408 net.cpp:156] Memory required for data: 539238912
I0331 00:28:49.887780 11408 layer_factory.hpp:77] Creating layer concat_conv2
I0331 00:28:49.887784 11408 net.cpp:91] Creating Layer concat_conv2
I0331 00:28:49.887786 11408 net.cpp:425] concat_conv2 <- conv2_sub
I0331 00:28:49.887790 11408 net.cpp:425] concat_conv2 <- conv2_4
I0331 00:28:49.887794 11408 net.cpp:399] concat_conv2 -> concat_conv2
I0331 00:28:49.887812 11408 net.cpp:141] Setting up concat_conv2
I0331 00:28:49.887817 11408 net.cpp:148] Top shape: 128 128 30 30 (14745600)
I0331 00:28:49.887820 11408 net.cpp:156] Memory required for data: 598221312
I0331 00:28:49.887822 11408 layer_factory.hpp:77] Creating layer pool2
I0331 00:28:49.887825 11408 net.cpp:91] Creating Layer pool2
I0331 00:28:49.887828 11408 net.cpp:425] pool2 <- concat_conv2
I0331 00:28:49.887832 11408 net.cpp:399] pool2 -> pool2
I0331 00:28:49.887858 11408 net.cpp:141] Setting up pool2
I0331 00:28:49.887862 11408 net.cpp:148] Top shape: 128 128 15 15 (3686400)
I0331 00:28:49.887864 11408 net.cpp:156] Memory required for data: 612966912
I0331 00:28:49.887867 11408 layer_factory.hpp:77] Creating layer conv3_squeeze
I0331 00:28:49.887872 11408 net.cpp:91] Creating Layer conv3_squeeze
I0331 00:28:49.887876 11408 net.cpp:425] conv3_squeeze <- pool2
I0331 00:28:49.887879 11408 net.cpp:399] conv3_squeeze -> conv3_squeeze
I0331 00:28:49.888052 11408 net.cpp:141] Setting up conv3_squeeze
I0331 00:28:49.888057 11408 net.cpp:148] Top shape: 128 64 15 15 (1843200)
I0331 00:28:49.888061 11408 net.cpp:156] Memory required for data: 620339712
I0331 00:28:49.888064 11408 layer_factory.hpp:77] Creating layer relu3_squeeze
I0331 00:28:49.888068 11408 net.cpp:91] Creating Layer relu3_squeeze
I0331 00:28:49.888072 11408 net.cpp:425] relu3_squeeze <- conv3_squeeze
I0331 00:28:49.888074 11408 net.cpp:386] relu3_squeeze -> conv3_squeeze (in-place)
I0331 00:28:49.888078 11408 net.cpp:141] Setting up relu3_squeeze
I0331 00:28:49.888082 11408 net.cpp:148] Top shape: 128 64 15 15 (1843200)
I0331 00:28:49.888084 11408 net.cpp:156] Memory required for data: 627712512
I0331 00:28:49.888087 11408 layer_factory.hpp:77] Creating layer conv3_squeeze_relu3_squeeze_0_split
I0331 00:28:49.888090 11408 net.cpp:91] Creating Layer conv3_squeeze_relu3_squeeze_0_split
I0331 00:28:49.888094 11408 net.cpp:425] conv3_squeeze_relu3_squeeze_0_split <- conv3_squeeze
I0331 00:28:49.888099 11408 net.cpp:399] conv3_squeeze_relu3_squeeze_0_split -> conv3_squeeze_relu3_squeeze_0_split_0
I0331 00:28:49.888108 11408 net.cpp:399] conv3_squeeze_relu3_squeeze_0_split -> conv3_squeeze_relu3_squeeze_0_split_1
I0331 00:28:49.888139 11408 net.cpp:141] Setting up conv3_squeeze_relu3_squeeze_0_split
I0331 00:28:49.888151 11408 net.cpp:148] Top shape: 128 64 15 15 (1843200)
I0331 00:28:49.888154 11408 net.cpp:148] Top shape: 128 64 15 15 (1843200)
I0331 00:28:49.888156 11408 net.cpp:156] Memory required for data: 642458112
I0331 00:28:49.888159 11408 layer_factory.hpp:77] Creating layer conv3_1
I0331 00:28:49.888165 11408 net.cpp:91] Creating Layer conv3_1
I0331 00:28:49.888167 11408 net.cpp:425] conv3_1 <- conv3_squeeze_relu3_squeeze_0_split_0
I0331 00:28:49.888172 11408 net.cpp:399] conv3_1 -> conv3_1
I0331 00:28:49.888362 11408 net.cpp:141] Setting up conv3_1
I0331 00:28:49.888368 11408 net.cpp:148] Top shape: 128 64 15 15 (1843200)
I0331 00:28:49.888370 11408 net.cpp:156] Memory required for data: 649830912
I0331 00:28:49.888377 11408 layer_factory.hpp:77] Creating layer relu3_1
I0331 00:28:49.888381 11408 net.cpp:91] Creating Layer relu3_1
I0331 00:28:49.888386 11408 net.cpp:425] relu3_1 <- conv3_1
I0331 00:28:49.888388 11408 net.cpp:386] relu3_1 -> conv3_1 (in-place)
I0331 00:28:49.888392 11408 net.cpp:141] Setting up relu3_1
I0331 00:28:49.888396 11408 net.cpp:148] Top shape: 128 64 15 15 (1843200)
I0331 00:28:49.888398 11408 net.cpp:156] Memory required for data: 657203712
I0331 00:28:49.888401 11408 layer_factory.hpp:77] Creating layer conv3_2
I0331 00:28:49.888404 11408 net.cpp:91] Creating Layer conv3_2
I0331 00:28:49.888406 11408 net.cpp:425] conv3_2 <- conv3_1
I0331 00:28:49.888412 11408 net.cpp:399] conv3_2 -> conv3_2
I0331 00:28:49.888607 11408 net.cpp:141] Setting up conv3_2
I0331 00:28:49.888612 11408 net.cpp:148] Top shape: 128 64 15 15 (1843200)
I0331 00:28:49.888614 11408 net.cpp:156] Memory required for data: 664576512
I0331 00:28:49.888619 11408 layer_factory.hpp:77] Creating layer relu3_2
I0331 00:28:49.888622 11408 net.cpp:91] Creating Layer relu3_2
I0331 00:28:49.888624 11408 net.cpp:425] relu3_2 <- conv3_2
I0331 00:28:49.888628 11408 net.cpp:386] relu3_2 -> conv3_2 (in-place)
I0331 00:28:49.888633 11408 net.cpp:141] Setting up relu3_2
I0331 00:28:49.888635 11408 net.cpp:148] Top shape: 128 64 15 15 (1843200)
I0331 00:28:49.888638 11408 net.cpp:156] Memory required for data: 671949312
I0331 00:28:49.888638 11408 layer_factory.hpp:77] Creating layer conv3_sub
I0331 00:28:49.888644 11408 net.cpp:91] Creating Layer conv3_sub
I0331 00:28:49.888648 11408 net.cpp:425] conv3_sub <- conv3_squeeze_relu3_squeeze_0_split_1
I0331 00:28:49.888651 11408 net.cpp:399] conv3_sub -> conv3_sub
I0331 00:28:49.888847 11408 net.cpp:141] Setting up conv3_sub
I0331 00:28:49.888854 11408 net.cpp:148] Top shape: 128 64 15 15 (1843200)
I0331 00:28:49.888856 11408 net.cpp:156] Memory required for data: 679322112
I0331 00:28:49.888860 11408 layer_factory.hpp:77] Creating layer relu3_sub
I0331 00:28:49.888864 11408 net.cpp:91] Creating Layer relu3_sub
I0331 00:28:49.888867 11408 net.cpp:425] relu3_sub <- conv3_sub
I0331 00:28:49.888870 11408 net.cpp:386] relu3_sub -> conv3_sub (in-place)
I0331 00:28:49.888875 11408 net.cpp:141] Setting up relu3_sub
I0331 00:28:49.888877 11408 net.cpp:148] Top shape: 128 64 15 15 (1843200)
I0331 00:28:49.888880 11408 net.cpp:156] Memory required for data: 686694912
I0331 00:28:49.888882 11408 layer_factory.hpp:77] Creating layer concat_conv3
I0331 00:28:49.888885 11408 net.cpp:91] Creating Layer concat_conv3
I0331 00:28:49.888888 11408 net.cpp:425] concat_conv3 <- conv3_sub
I0331 00:28:49.888891 11408 net.cpp:425] concat_conv3 <- conv3_2
I0331 00:28:49.888895 11408 net.cpp:399] concat_conv3 -> concat_conv3
I0331 00:28:49.888912 11408 net.cpp:141] Setting up concat_conv3
I0331 00:28:49.888916 11408 net.cpp:148] Top shape: 128 128 15 15 (3686400)
I0331 00:28:49.888919 11408 net.cpp:156] Memory required for data: 701440512
I0331 00:28:49.888921 11408 layer_factory.hpp:77] Creating layer pool3
I0331 00:28:49.888926 11408 net.cpp:91] Creating Layer pool3
I0331 00:28:49.888927 11408 net.cpp:425] pool3 <- concat_conv3
I0331 00:28:49.888933 11408 net.cpp:399] pool3 -> pool3
I0331 00:28:49.888967 11408 net.cpp:141] Setting up pool3
I0331 00:28:49.888972 11408 net.cpp:148] Top shape: 128 128 8 8 (1048576)
I0331 00:28:49.888980 11408 net.cpp:156] Memory required for data: 705634816
I0331 00:28:49.888983 11408 layer_factory.hpp:77] Creating layer conv4_squeeze
I0331 00:28:49.888989 11408 net.cpp:91] Creating Layer conv4_squeeze
I0331 00:28:49.888993 11408 net.cpp:425] conv4_squeeze <- pool3
I0331 00:28:49.888998 11408 net.cpp:399] conv4_squeeze -> conv4_squeeze
I0331 00:28:49.889201 11408 net.cpp:141] Setting up conv4_squeeze
I0331 00:28:49.889207 11408 net.cpp:148] Top shape: 128 64 8 8 (524288)
I0331 00:28:49.889209 11408 net.cpp:156] Memory required for data: 707731968
I0331 00:28:49.889214 11408 layer_factory.hpp:77] Creating layer relu4_squeeze
I0331 00:28:49.889219 11408 net.cpp:91] Creating Layer relu4_squeeze
I0331 00:28:49.889220 11408 net.cpp:425] relu4_squeeze <- conv4_squeeze
I0331 00:28:49.889225 11408 net.cpp:386] relu4_squeeze -> conv4_squeeze (in-place)
I0331 00:28:49.889228 11408 net.cpp:141] Setting up relu4_squeeze
I0331 00:28:49.889232 11408 net.cpp:148] Top shape: 128 64 8 8 (524288)
I0331 00:28:49.889235 11408 net.cpp:156] Memory required for data: 709829120
I0331 00:28:49.889236 11408 layer_factory.hpp:77] Creating layer conv4_1
I0331 00:28:49.889245 11408 net.cpp:91] Creating Layer conv4_1
I0331 00:28:49.889247 11408 net.cpp:425] conv4_1 <- conv4_squeeze
I0331 00:28:49.889251 11408 net.cpp:399] conv4_1 -> conv4_1
I0331 00:28:49.889837 11408 net.cpp:141] Setting up conv4_1
I0331 00:28:49.889847 11408 net.cpp:148] Top shape: 128 128 6 6 (589824)
I0331 00:28:49.889849 11408 net.cpp:156] Memory required for data: 712188416
I0331 00:28:49.889854 11408 layer_factory.hpp:77] Creating layer relu4_1
I0331 00:28:49.889859 11408 net.cpp:91] Creating Layer relu4_1
I0331 00:28:49.889863 11408 net.cpp:425] relu4_1 <- conv4_1
I0331 00:28:49.889866 11408 net.cpp:386] relu4_1 -> conv4_1 (in-place)
I0331 00:28:49.889871 11408 net.cpp:141] Setting up relu4_1
I0331 00:28:49.889874 11408 net.cpp:148] Top shape: 128 128 6 6 (589824)
I0331 00:28:49.889876 11408 net.cpp:156] Memory required for data: 714547712
I0331 00:28:49.889878 11408 layer_factory.hpp:77] Creating layer conv4_2
I0331 00:28:49.889884 11408 net.cpp:91] Creating Layer conv4_2
I0331 00:28:49.889886 11408 net.cpp:425] conv4_2 <- conv4_1
I0331 00:28:49.889890 11408 net.cpp:399] conv4_2 -> conv4_2
I0331 00:28:49.890146 11408 net.cpp:141] Setting up conv4_2
I0331 00:28:49.890152 11408 net.cpp:148] Top shape: 128 128 4 4 (262144)
I0331 00:28:49.890154 11408 net.cpp:156] Memory required for data: 715596288
I0331 00:28:49.890158 11408 layer_factory.hpp:77] Creating layer relu4_2
I0331 00:28:49.890162 11408 net.cpp:91] Creating Layer relu4_2
I0331 00:28:49.890164 11408 net.cpp:425] relu4_2 <- conv4_2
I0331 00:28:49.890168 11408 net.cpp:386] relu4_2 -> conv4_2 (in-place)
I0331 00:28:49.890172 11408 net.cpp:141] Setting up relu4_2
I0331 00:28:49.890177 11408 net.cpp:148] Top shape: 128 128 4 4 (262144)
I0331 00:28:49.890178 11408 net.cpp:156] Memory required for data: 716644864
I0331 00:28:49.890180 11408 layer_factory.hpp:77] Creating layer conv4_3
I0331 00:28:49.890184 11408 net.cpp:91] Creating Layer conv4_3
I0331 00:28:49.890188 11408 net.cpp:425] conv4_3 <- conv4_2
I0331 00:28:49.890192 11408 net.cpp:399] conv4_3 -> conv4_3
I0331 00:28:49.890918 11408 net.cpp:141] Setting up conv4_3
I0331 00:28:49.890926 11408 net.cpp:148] Top shape: 128 256 2 2 (131072)
I0331 00:28:49.890929 11408 net.cpp:156] Memory required for data: 717169152
I0331 00:28:49.890934 11408 layer_factory.hpp:77] Creating layer relu4_3
I0331 00:28:49.890938 11408 net.cpp:91] Creating Layer relu4_3
I0331 00:28:49.890940 11408 net.cpp:425] relu4_3 <- conv4_3
I0331 00:28:49.890944 11408 net.cpp:386] relu4_3 -> conv4_3 (in-place)
I0331 00:28:49.890949 11408 net.cpp:141] Setting up relu4_3
I0331 00:28:49.890951 11408 net.cpp:148] Top shape: 128 256 2 2 (131072)
I0331 00:28:49.890954 11408 net.cpp:156] Memory required for data: 717693440
I0331 00:28:49.890956 11408 layer_factory.hpp:77] Creating layer conv5
I0331 00:28:49.890962 11408 net.cpp:91] Creating Layer conv5
I0331 00:28:49.890974 11408 net.cpp:425] conv5 <- conv4_3
I0331 00:28:49.890980 11408 net.cpp:399] conv5 -> conv5
I0331 00:28:49.891588 11408 net.cpp:141] Setting up conv5
I0331 00:28:49.891598 11408 net.cpp:148] Top shape: 128 512 2 2 (262144)
I0331 00:28:49.891600 11408 net.cpp:156] Memory required for data: 718742016
I0331 00:28:49.891605 11408 layer_factory.hpp:77] Creating layer relu5
I0331 00:28:49.891609 11408 net.cpp:91] Creating Layer relu5
I0331 00:28:49.891613 11408 net.cpp:425] relu5 <- conv5
I0331 00:28:49.891616 11408 net.cpp:386] relu5 -> conv5 (in-place)
I0331 00:28:49.891620 11408 net.cpp:141] Setting up relu5
I0331 00:28:49.891623 11408 net.cpp:148] Top shape: 128 512 2 2 (262144)
I0331 00:28:49.891625 11408 net.cpp:156] Memory required for data: 719790592
I0331 00:28:49.891628 11408 layer_factory.hpp:77] Creating layer conv5_relu5_0_split
I0331 00:28:49.891633 11408 net.cpp:91] Creating Layer conv5_relu5_0_split
I0331 00:28:49.891636 11408 net.cpp:425] conv5_relu5_0_split <- conv5
I0331 00:28:49.891641 11408 net.cpp:399] conv5_relu5_0_split -> conv5_relu5_0_split_0
I0331 00:28:49.891649 11408 net.cpp:399] conv5_relu5_0_split -> conv5_relu5_0_split_1
I0331 00:28:49.891656 11408 net.cpp:399] conv5_relu5_0_split -> conv5_relu5_0_split_2
I0331 00:28:49.891662 11408 net.cpp:399] conv5_relu5_0_split -> conv5_relu5_0_split_3
I0331 00:28:49.891669 11408 net.cpp:399] conv5_relu5_0_split -> conv5_relu5_0_split_4
I0331 00:28:49.891675 11408 net.cpp:399] conv5_relu5_0_split -> conv5_relu5_0_split_5
I0331 00:28:49.891681 11408 net.cpp:399] conv5_relu5_0_split -> conv5_relu5_0_split_6
I0331 00:28:49.891687 11408 net.cpp:399] conv5_relu5_0_split -> conv5_relu5_0_split_7
I0331 00:28:49.891695 11408 net.cpp:399] conv5_relu5_0_split -> conv5_relu5_0_split_8
I0331 00:28:49.891700 11408 net.cpp:399] conv5_relu5_0_split -> conv5_relu5_0_split_9
I0331 00:28:49.891710 11408 net.cpp:399] conv5_relu5_0_split -> conv5_relu5_0_split_10
I0331 00:28:49.891717 11408 net.cpp:399] conv5_relu5_0_split -> conv5_relu5_0_split_11
I0331 00:28:49.891837 11408 net.cpp:141] Setting up conv5_relu5_0_split
I0331 00:28:49.891842 11408 net.cpp:148] Top shape: 128 512 2 2 (262144)
I0331 00:28:49.891845 11408 net.cpp:148] Top shape: 128 512 2 2 (262144)
I0331 00:28:49.891849 11408 net.cpp:148] Top shape: 128 512 2 2 (262144)
I0331 00:28:49.891852 11408 net.cpp:148] Top shape: 128 512 2 2 (262144)
I0331 00:28:49.891855 11408 net.cpp:148] Top shape: 128 512 2 2 (262144)
I0331 00:28:49.891860 11408 net.cpp:148] Top shape: 128 512 2 2 (262144)
I0331 00:28:49.891863 11408 net.cpp:148] Top shape: 128 512 2 2 (262144)
I0331 00:28:49.891866 11408 net.cpp:148] Top shape: 128 512 2 2 (262144)
I0331 00:28:49.891870 11408 net.cpp:148] Top shape: 128 512 2 2 (262144)
I0331 00:28:49.891872 11408 net.cpp:148] Top shape: 128 512 2 2 (262144)
I0331 00:28:49.891877 11408 net.cpp:148] Top shape: 128 512 2 2 (262144)
I0331 00:28:49.891882 11408 net.cpp:148] Top shape: 128 512 2 2 (262144)
I0331 00:28:49.891885 11408 net.cpp:156] Memory required for data: 732373504
I0331 00:28:49.891890 11408 layer_factory.hpp:77] Creating layer fc1_left_eye_confidence
I0331 00:28:49.891899 11408 net.cpp:91] Creating Layer fc1_left_eye_confidence
I0331 00:28:49.891904 11408 net.cpp:425] fc1_left_eye_confidence <- conv5_relu5_0_split_0
I0331 00:28:49.891911 11408 net.cpp:399] fc1_left_eye_confidence -> fc1_left_eye_confidence
I0331 00:28:49.892846 11408 net.cpp:141] Setting up fc1_left_eye_confidence
I0331 00:28:49.892856 11408 net.cpp:148] Top shape: 128 256 (32768)
I0331 00:28:49.892859 11408 net.cpp:156] Memory required for data: 732504576
I0331 00:28:49.892874 11408 layer_factory.hpp:77] Creating layer relu_left_eye_confidence
I0331 00:28:49.892881 11408 net.cpp:91] Creating Layer relu_left_eye_confidence
I0331 00:28:49.892887 11408 net.cpp:425] relu_left_eye_confidence <- fc1_left_eye_confidence
I0331 00:28:49.892892 11408 net.cpp:386] relu_left_eye_confidence -> fc1_left_eye_confidence (in-place)
I0331 00:28:49.892900 11408 net.cpp:141] Setting up relu_left_eye_confidence
I0331 00:28:49.892905 11408 net.cpp:148] Top shape: 128 256 (32768)
I0331 00:28:49.892930 11408 net.cpp:156] Memory required for data: 732635648
I0331 00:28:49.892933 11408 layer_factory.hpp:77] Creating layer drop1_left_eye_confidence
I0331 00:28:49.892940 11408 net.cpp:91] Creating Layer drop1_left_eye_confidence
I0331 00:28:49.892945 11408 net.cpp:425] drop1_left_eye_confidence <- fc1_left_eye_confidence
I0331 00:28:49.892951 11408 net.cpp:386] drop1_left_eye_confidence -> fc1_left_eye_confidence (in-place)
I0331 00:28:49.892969 11408 net.cpp:141] Setting up drop1_left_eye_confidence
I0331 00:28:49.892973 11408 net.cpp:148] Top shape: 128 256 (32768)
I0331 00:28:49.892976 11408 net.cpp:156] Memory required for data: 732766720
I0331 00:28:49.892978 11408 layer_factory.hpp:77] Creating layer fc2_left_eye_confidence
I0331 00:28:49.892984 11408 net.cpp:91] Creating Layer fc2_left_eye_confidence
I0331 00:28:49.892987 11408 net.cpp:425] fc2_left_eye_confidence <- fc1_left_eye_confidence
I0331 00:28:49.892992 11408 net.cpp:399] fc2_left_eye_confidence -> fc2_left_eye_confidence
I0331 00:28:49.893066 11408 net.cpp:141] Setting up fc2_left_eye_confidence
I0331 00:28:49.893071 11408 net.cpp:148] Top shape: 128 1 (128)
I0331 00:28:49.893074 11408 net.cpp:156] Memory required for data: 732767232
I0331 00:28:49.893080 11408 layer_factory.hpp:77] Creating layer loss_left_eye_confidence
I0331 00:28:49.893088 11408 net.cpp:91] Creating Layer loss_left_eye_confidence
I0331 00:28:49.893092 11408 net.cpp:425] loss_left_eye_confidence <- fc2_left_eye_confidence
I0331 00:28:49.893097 11408 net.cpp:425] loss_left_eye_confidence <- eye_visibility_left
I0331 00:28:49.893103 11408 net.cpp:399] loss_left_eye_confidence -> loss_left_eye_confidence
I0331 00:28:49.893133 11408 net.cpp:141] Setting up loss_left_eye_confidence
I0331 00:28:49.893137 11408 net.cpp:148] Top shape: (1)
I0331 00:28:49.893139 11408 net.cpp:151]     with loss weight 1
I0331 00:28:49.893156 11408 net.cpp:156] Memory required for data: 732767236
I0331 00:28:49.893158 11408 layer_factory.hpp:77] Creating layer fc1_right_eye_confidence
I0331 00:28:49.893165 11408 net.cpp:91] Creating Layer fc1_right_eye_confidence
I0331 00:28:49.893167 11408 net.cpp:425] fc1_right_eye_confidence <- conv5_relu5_0_split_1
I0331 00:28:49.893172 11408 net.cpp:399] fc1_right_eye_confidence -> fc1_right_eye_confidence
I0331 00:28:49.894124 11408 net.cpp:141] Setting up fc1_right_eye_confidence
I0331 00:28:49.894132 11408 net.cpp:148] Top shape: 128 256 (32768)
I0331 00:28:49.894135 11408 net.cpp:156] Memory required for data: 732898308
I0331 00:28:49.894142 11408 layer_factory.hpp:77] Creating layer relu_right_eye_confidence
I0331 00:28:49.894151 11408 net.cpp:91] Creating Layer relu_right_eye_confidence
I0331 00:28:49.894157 11408 net.cpp:425] relu_right_eye_confidence <- fc1_right_eye_confidence
I0331 00:28:49.894165 11408 net.cpp:386] relu_right_eye_confidence -> fc1_right_eye_confidence (in-place)
I0331 00:28:49.894172 11408 net.cpp:141] Setting up relu_right_eye_confidence
I0331 00:28:49.894176 11408 net.cpp:148] Top shape: 128 256 (32768)
I0331 00:28:49.894178 11408 net.cpp:156] Memory required for data: 733029380
I0331 00:28:49.894181 11408 layer_factory.hpp:77] Creating layer drop1_right_eye_confidence
I0331 00:28:49.894186 11408 net.cpp:91] Creating Layer drop1_right_eye_confidence
I0331 00:28:49.894189 11408 net.cpp:425] drop1_right_eye_confidence <- fc1_right_eye_confidence
I0331 00:28:49.894196 11408 net.cpp:386] drop1_right_eye_confidence -> fc1_right_eye_confidence (in-place)
I0331 00:28:49.894214 11408 net.cpp:141] Setting up drop1_right_eye_confidence
I0331 00:28:49.894218 11408 net.cpp:148] Top shape: 128 256 (32768)
I0331 00:28:49.894222 11408 net.cpp:156] Memory required for data: 733160452
I0331 00:28:49.894225 11408 layer_factory.hpp:77] Creating layer fc2_right_eye_confidence
I0331 00:28:49.894232 11408 net.cpp:91] Creating Layer fc2_right_eye_confidence
I0331 00:28:49.894235 11408 net.cpp:425] fc2_right_eye_confidence <- fc1_right_eye_confidence
I0331 00:28:49.894240 11408 net.cpp:399] fc2_right_eye_confidence -> fc2_right_eye_confidence
I0331 00:28:49.894325 11408 net.cpp:141] Setting up fc2_right_eye_confidence
I0331 00:28:49.894330 11408 net.cpp:148] Top shape: 128 1 (128)
I0331 00:28:49.894331 11408 net.cpp:156] Memory required for data: 733160964
I0331 00:28:49.894336 11408 layer_factory.hpp:77] Creating layer loss_right_eye_confidence
I0331 00:28:49.894340 11408 net.cpp:91] Creating Layer loss_right_eye_confidence
I0331 00:28:49.894342 11408 net.cpp:425] loss_right_eye_confidence <- fc2_right_eye_confidence
I0331 00:28:49.894347 11408 net.cpp:425] loss_right_eye_confidence <- eye_visibility_right
I0331 00:28:49.894356 11408 net.cpp:399] loss_right_eye_confidence -> loss_right_eye_confidence
I0331 00:28:49.894385 11408 net.cpp:141] Setting up loss_right_eye_confidence
I0331 00:28:49.894390 11408 net.cpp:148] Top shape: (1)
I0331 00:28:49.894392 11408 net.cpp:151]     with loss weight 1
I0331 00:28:49.894399 11408 net.cpp:156] Memory required for data: 733160968
I0331 00:28:49.894403 11408 layer_factory.hpp:77] Creating layer fc1_glasses
I0331 00:28:49.894408 11408 net.cpp:91] Creating Layer fc1_glasses
I0331 00:28:49.894412 11408 net.cpp:425] fc1_glasses <- conv5_relu5_0_split_2
I0331 00:28:49.894417 11408 net.cpp:399] fc1_glasses -> fc1_glasses
I0331 00:28:49.895392 11408 net.cpp:141] Setting up fc1_glasses
I0331 00:28:49.895402 11408 net.cpp:148] Top shape: 128 256 (32768)
I0331 00:28:49.895404 11408 net.cpp:156] Memory required for data: 733292040
I0331 00:28:49.895409 11408 layer_factory.hpp:77] Creating layer relu_glasses
I0331 00:28:49.895417 11408 net.cpp:91] Creating Layer relu_glasses
I0331 00:28:49.895421 11408 net.cpp:425] relu_glasses <- fc1_glasses
I0331 00:28:49.895426 11408 net.cpp:386] relu_glasses -> fc1_glasses (in-place)
I0331 00:28:49.895431 11408 net.cpp:141] Setting up relu_glasses
I0331 00:28:49.895436 11408 net.cpp:148] Top shape: 128 256 (32768)
I0331 00:28:49.895437 11408 net.cpp:156] Memory required for data: 733423112
I0331 00:28:49.895439 11408 layer_factory.hpp:77] Creating layer drop1_glasses
I0331 00:28:49.895444 11408 net.cpp:91] Creating Layer drop1_glasses
I0331 00:28:49.895448 11408 net.cpp:425] drop1_glasses <- fc1_glasses
I0331 00:28:49.895452 11408 net.cpp:386] drop1_glasses -> fc1_glasses (in-place)
I0331 00:28:49.895465 11408 net.cpp:141] Setting up drop1_glasses
I0331 00:28:49.895469 11408 net.cpp:148] Top shape: 128 256 (32768)
I0331 00:28:49.895472 11408 net.cpp:156] Memory required for data: 733554184
I0331 00:28:49.895473 11408 layer_factory.hpp:77] Creating layer fc2_glasses
I0331 00:28:49.895478 11408 net.cpp:91] Creating Layer fc2_glasses
I0331 00:28:49.895481 11408 net.cpp:425] fc2_glasses <- fc1_glasses
I0331 00:28:49.895486 11408 net.cpp:399] fc2_glasses -> fc2_glasses
I0331 00:28:49.895557 11408 net.cpp:141] Setting up fc2_glasses
I0331 00:28:49.895562 11408 net.cpp:148] Top shape: 128 1 (128)
I0331 00:28:49.895565 11408 net.cpp:156] Memory required for data: 733554696
I0331 00:28:49.895568 11408 layer_factory.hpp:77] Creating layer loss_glasses
I0331 00:28:49.895572 11408 net.cpp:91] Creating Layer loss_glasses
I0331 00:28:49.895575 11408 net.cpp:425] loss_glasses <- fc2_glasses
I0331 00:28:49.895577 11408 net.cpp:425] loss_glasses <- glasses
I0331 00:28:49.895582 11408 net.cpp:399] loss_glasses -> loss_glasses
I0331 00:28:49.895608 11408 net.cpp:141] Setting up loss_glasses
I0331 00:28:49.895612 11408 net.cpp:148] Top shape: (1)
I0331 00:28:49.895614 11408 net.cpp:151]     with loss weight 1
I0331 00:28:49.895622 11408 net.cpp:156] Memory required for data: 733554700
I0331 00:28:49.895623 11408 layer_factory.hpp:77] Creating layer fc1_nose_confidence
I0331 00:28:49.895628 11408 net.cpp:91] Creating Layer fc1_nose_confidence
I0331 00:28:49.895632 11408 net.cpp:425] fc1_nose_confidence <- conv5_relu5_0_split_3
I0331 00:28:49.895637 11408 net.cpp:399] fc1_nose_confidence -> fc1_nose_confidence
I0331 00:28:49.896570 11408 net.cpp:141] Setting up fc1_nose_confidence
I0331 00:28:49.896580 11408 net.cpp:148] Top shape: 128 256 (32768)
I0331 00:28:49.896582 11408 net.cpp:156] Memory required for data: 733685772
I0331 00:28:49.896597 11408 layer_factory.hpp:77] Creating layer relu_nose_confidence
I0331 00:28:49.896605 11408 net.cpp:91] Creating Layer relu_nose_confidence
I0331 00:28:49.896608 11408 net.cpp:425] relu_nose_confidence <- fc1_nose_confidence
I0331 00:28:49.896613 11408 net.cpp:386] relu_nose_confidence -> fc1_nose_confidence (in-place)
I0331 00:28:49.896620 11408 net.cpp:141] Setting up relu_nose_confidence
I0331 00:28:49.896625 11408 net.cpp:148] Top shape: 128 256 (32768)
I0331 00:28:49.896626 11408 net.cpp:156] Memory required for data: 733816844
I0331 00:28:49.896628 11408 layer_factory.hpp:77] Creating layer drop1_nose_confidence
I0331 00:28:49.896632 11408 net.cpp:91] Creating Layer drop1_nose_confidence
I0331 00:28:49.896636 11408 net.cpp:425] drop1_nose_confidence <- fc1_nose_confidence
I0331 00:28:49.896639 11408 net.cpp:386] drop1_nose_confidence -> fc1_nose_confidence (in-place)
I0331 00:28:49.896654 11408 net.cpp:141] Setting up drop1_nose_confidence
I0331 00:28:49.896658 11408 net.cpp:148] Top shape: 128 256 (32768)
I0331 00:28:49.896661 11408 net.cpp:156] Memory required for data: 733947916
I0331 00:28:49.896663 11408 layer_factory.hpp:77] Creating layer fc2_nose_confidence
I0331 00:28:49.896667 11408 net.cpp:91] Creating Layer fc2_nose_confidence
I0331 00:28:49.896670 11408 net.cpp:425] fc2_nose_confidence <- fc1_nose_confidence
I0331 00:28:49.896675 11408 net.cpp:399] fc2_nose_confidence -> fc2_nose_confidence
I0331 00:28:49.896749 11408 net.cpp:141] Setting up fc2_nose_confidence
I0331 00:28:49.896755 11408 net.cpp:148] Top shape: 128 1 (128)
I0331 00:28:49.896757 11408 net.cpp:156] Memory required for data: 733948428
I0331 00:28:49.896761 11408 layer_factory.hpp:77] Creating layer loss_nose_confidence
I0331 00:28:49.896765 11408 net.cpp:91] Creating Layer loss_nose_confidence
I0331 00:28:49.896767 11408 net.cpp:425] loss_nose_confidence <- fc2_nose_confidence
I0331 00:28:49.896770 11408 net.cpp:425] loss_nose_confidence <- nose_visibility
I0331 00:28:49.896775 11408 net.cpp:399] loss_nose_confidence -> loss_nose_confidence
I0331 00:28:49.896801 11408 net.cpp:141] Setting up loss_nose_confidence
I0331 00:28:49.896806 11408 net.cpp:148] Top shape: (1)
I0331 00:28:49.896807 11408 net.cpp:151]     with loss weight 1
I0331 00:28:49.896814 11408 net.cpp:156] Memory required for data: 733948432
I0331 00:28:49.896816 11408 layer_factory.hpp:77] Creating layer fc1_left_mouth_confidence
I0331 00:28:49.896819 11408 net.cpp:91] Creating Layer fc1_left_mouth_confidence
I0331 00:28:49.896822 11408 net.cpp:425] fc1_left_mouth_confidence <- conv5_relu5_0_split_4
I0331 00:28:49.896828 11408 net.cpp:399] fc1_left_mouth_confidence -> fc1_left_mouth_confidence
I0331 00:28:49.897822 11408 net.cpp:141] Setting up fc1_left_mouth_confidence
I0331 00:28:49.897837 11408 net.cpp:148] Top shape: 128 256 (32768)
I0331 00:28:49.897840 11408 net.cpp:156] Memory required for data: 734079504
I0331 00:28:49.897847 11408 layer_factory.hpp:77] Creating layer relu_left_mouth_confidence
I0331 00:28:49.897855 11408 net.cpp:91] Creating Layer relu_left_mouth_confidence
I0331 00:28:49.897857 11408 net.cpp:425] relu_left_mouth_confidence <- fc1_left_mouth_confidence
I0331 00:28:49.897862 11408 net.cpp:386] relu_left_mouth_confidence -> fc1_left_mouth_confidence (in-place)
I0331 00:28:49.897868 11408 net.cpp:141] Setting up relu_left_mouth_confidence
I0331 00:28:49.897872 11408 net.cpp:148] Top shape: 128 256 (32768)
I0331 00:28:49.897874 11408 net.cpp:156] Memory required for data: 734210576
I0331 00:28:49.897876 11408 layer_factory.hpp:77] Creating layer drop1_left_mouth_confidence
I0331 00:28:49.897881 11408 net.cpp:91] Creating Layer drop1_left_mouth_confidence
I0331 00:28:49.897883 11408 net.cpp:425] drop1_left_mouth_confidence <- fc1_left_mouth_confidence
I0331 00:28:49.897887 11408 net.cpp:386] drop1_left_mouth_confidence -> fc1_left_mouth_confidence (in-place)
I0331 00:28:49.897907 11408 net.cpp:141] Setting up drop1_left_mouth_confidence
I0331 00:28:49.897915 11408 net.cpp:148] Top shape: 128 256 (32768)
I0331 00:28:49.897931 11408 net.cpp:156] Memory required for data: 734341648
I0331 00:28:49.897935 11408 layer_factory.hpp:77] Creating layer fc2_left_mouth_confidence
I0331 00:28:49.897953 11408 net.cpp:91] Creating Layer fc2_left_mouth_confidence
I0331 00:28:49.897959 11408 net.cpp:425] fc2_left_mouth_confidence <- fc1_left_mouth_confidence
I0331 00:28:49.897966 11408 net.cpp:399] fc2_left_mouth_confidence -> fc2_left_mouth_confidence
I0331 00:28:49.898072 11408 net.cpp:141] Setting up fc2_left_mouth_confidence
I0331 00:28:49.898078 11408 net.cpp:148] Top shape: 128 1 (128)
I0331 00:28:49.898082 11408 net.cpp:156] Memory required for data: 734342160
I0331 00:28:49.898087 11408 layer_factory.hpp:77] Creating layer loss_left_mouth_confidence
I0331 00:28:49.898092 11408 net.cpp:91] Creating Layer loss_left_mouth_confidence
I0331 00:28:49.898094 11408 net.cpp:425] loss_left_mouth_confidence <- fc2_left_mouth_confidence
I0331 00:28:49.898098 11408 net.cpp:425] loss_left_mouth_confidence <- mouth_visibility_left
I0331 00:28:49.898103 11408 net.cpp:399] loss_left_mouth_confidence -> loss_left_mouth_confidence
I0331 00:28:49.898138 11408 net.cpp:141] Setting up loss_left_mouth_confidence
I0331 00:28:49.898144 11408 net.cpp:148] Top shape: (1)
I0331 00:28:49.898145 11408 net.cpp:151]     with loss weight 1
I0331 00:28:49.898154 11408 net.cpp:156] Memory required for data: 734342164
I0331 00:28:49.898155 11408 layer_factory.hpp:77] Creating layer fc1_right_mouth_confidence
I0331 00:28:49.898159 11408 net.cpp:91] Creating Layer fc1_right_mouth_confidence
I0331 00:28:49.898162 11408 net.cpp:425] fc1_right_mouth_confidence <- conv5_relu5_0_split_5
I0331 00:28:49.898169 11408 net.cpp:399] fc1_right_mouth_confidence -> fc1_right_mouth_confidence
I0331 00:28:49.899149 11408 net.cpp:141] Setting up fc1_right_mouth_confidence
I0331 00:28:49.899159 11408 net.cpp:148] Top shape: 128 256 (32768)
I0331 00:28:49.899163 11408 net.cpp:156] Memory required for data: 734473236
I0331 00:28:49.899168 11408 layer_factory.hpp:77] Creating layer relu_right_mouth_confidence
I0331 00:28:49.899173 11408 net.cpp:91] Creating Layer relu_right_mouth_confidence
I0331 00:28:49.899176 11408 net.cpp:425] relu_right_mouth_confidence <- fc1_right_mouth_confidence
I0331 00:28:49.899183 11408 net.cpp:386] relu_right_mouth_confidence -> fc1_right_mouth_confidence (in-place)
I0331 00:28:49.899188 11408 net.cpp:141] Setting up relu_right_mouth_confidence
I0331 00:28:49.899190 11408 net.cpp:148] Top shape: 128 256 (32768)
I0331 00:28:49.899193 11408 net.cpp:156] Memory required for data: 734604308
I0331 00:28:49.899195 11408 layer_factory.hpp:77] Creating layer drop1_right_mouth_confidence
I0331 00:28:49.899199 11408 net.cpp:91] Creating Layer drop1_right_mouth_confidence
I0331 00:28:49.899201 11408 net.cpp:425] drop1_right_mouth_confidence <- fc1_right_mouth_confidence
I0331 00:28:49.899205 11408 net.cpp:386] drop1_right_mouth_confidence -> fc1_right_mouth_confidence (in-place)
I0331 00:28:49.899220 11408 net.cpp:141] Setting up drop1_right_mouth_confidence
I0331 00:28:49.899224 11408 net.cpp:148] Top shape: 128 256 (32768)
I0331 00:28:49.899226 11408 net.cpp:156] Memory required for data: 734735380
I0331 00:28:49.899229 11408 layer_factory.hpp:77] Creating layer fc2_right_mouth_confidence
I0331 00:28:49.899232 11408 net.cpp:91] Creating Layer fc2_right_mouth_confidence
I0331 00:28:49.899235 11408 net.cpp:425] fc2_right_mouth_confidence <- fc1_right_mouth_confidence
I0331 00:28:49.899240 11408 net.cpp:399] fc2_right_mouth_confidence -> fc2_right_mouth_confidence
I0331 00:28:49.899310 11408 net.cpp:141] Setting up fc2_right_mouth_confidence
I0331 00:28:49.899317 11408 net.cpp:148] Top shape: 128 1 (128)
I0331 00:28:49.899318 11408 net.cpp:156] Memory required for data: 734735892
I0331 00:28:49.899322 11408 layer_factory.hpp:77] Creating layer loss_right_mouth_confidence
I0331 00:28:49.899325 11408 net.cpp:91] Creating Layer loss_right_mouth_confidence
I0331 00:28:49.899328 11408 net.cpp:425] loss_right_mouth_confidence <- fc2_right_mouth_confidence
I0331 00:28:49.899341 11408 net.cpp:425] loss_right_mouth_confidence <- mouth_visibility_right
I0331 00:28:49.899348 11408 net.cpp:399] loss_right_mouth_confidence -> loss_right_mouth_confidence
I0331 00:28:49.899375 11408 net.cpp:141] Setting up loss_right_mouth_confidence
I0331 00:28:49.899380 11408 net.cpp:148] Top shape: (1)
I0331 00:28:49.899382 11408 net.cpp:151]     with loss weight 1
I0331 00:28:49.899387 11408 net.cpp:156] Memory required for data: 734735896
I0331 00:28:49.899389 11408 layer_factory.hpp:77] Creating layer fc1_smile
I0331 00:28:49.899394 11408 net.cpp:91] Creating Layer fc1_smile
I0331 00:28:49.899397 11408 net.cpp:425] fc1_smile <- conv5_relu5_0_split_6
I0331 00:28:49.899401 11408 net.cpp:399] fc1_smile -> fc1_smile
I0331 00:28:49.900447 11408 net.cpp:141] Setting up fc1_smile
I0331 00:28:49.900460 11408 net.cpp:148] Top shape: 128 256 (32768)
I0331 00:28:49.900461 11408 net.cpp:156] Memory required for data: 734866968
I0331 00:28:49.900467 11408 layer_factory.hpp:77] Creating layer relu_smile
I0331 00:28:49.900472 11408 net.cpp:91] Creating Layer relu_smile
I0331 00:28:49.900477 11408 net.cpp:425] relu_smile <- fc1_smile
I0331 00:28:49.900481 11408 net.cpp:386] relu_smile -> fc1_smile (in-place)
I0331 00:28:49.900487 11408 net.cpp:141] Setting up relu_smile
I0331 00:28:49.900490 11408 net.cpp:148] Top shape: 128 256 (32768)
I0331 00:28:49.900492 11408 net.cpp:156] Memory required for data: 734998040
I0331 00:28:49.900494 11408 layer_factory.hpp:77] Creating layer drop1_smile
I0331 00:28:49.900501 11408 net.cpp:91] Creating Layer drop1_smile
I0331 00:28:49.900503 11408 net.cpp:425] drop1_smile <- fc1_smile
I0331 00:28:49.900507 11408 net.cpp:386] drop1_smile -> fc1_smile (in-place)
I0331 00:28:49.900521 11408 net.cpp:141] Setting up drop1_smile
I0331 00:28:49.900527 11408 net.cpp:148] Top shape: 128 256 (32768)
I0331 00:28:49.900528 11408 net.cpp:156] Memory required for data: 735129112
I0331 00:28:49.900532 11408 layer_factory.hpp:77] Creating layer fc2_smile
I0331 00:28:49.900535 11408 net.cpp:91] Creating Layer fc2_smile
I0331 00:28:49.900538 11408 net.cpp:425] fc2_smile <- fc1_smile
I0331 00:28:49.900542 11408 net.cpp:399] fc2_smile -> fc2_smile
I0331 00:28:49.900614 11408 net.cpp:141] Setting up fc2_smile
I0331 00:28:49.900619 11408 net.cpp:148] Top shape: 128 1 (128)
I0331 00:28:49.900620 11408 net.cpp:156] Memory required for data: 735129624
I0331 00:28:49.900624 11408 layer_factory.hpp:77] Creating layer loss_smile
I0331 00:28:49.900629 11408 net.cpp:91] Creating Layer loss_smile
I0331 00:28:49.900632 11408 net.cpp:425] loss_smile <- fc2_smile
I0331 00:28:49.900635 11408 net.cpp:425] loss_smile <- smile
I0331 00:28:49.900640 11408 net.cpp:399] loss_smile -> loss_smile
I0331 00:28:49.900667 11408 net.cpp:141] Setting up loss_smile
I0331 00:28:49.900671 11408 net.cpp:148] Top shape: (1)
I0331 00:28:49.900673 11408 net.cpp:151]     with loss weight 1
I0331 00:28:49.900681 11408 net.cpp:156] Memory required for data: 735129628
I0331 00:28:49.900683 11408 layer_factory.hpp:77] Creating layer fc1_left_eye_coordinate
I0331 00:28:49.900689 11408 net.cpp:91] Creating Layer fc1_left_eye_coordinate
I0331 00:28:49.900692 11408 net.cpp:425] fc1_left_eye_coordinate <- conv5_relu5_0_split_7
I0331 00:28:49.900698 11408 net.cpp:399] fc1_left_eye_coordinate -> fc1_left_eye_coordinate
I0331 00:28:49.909710 11408 net.cpp:141] Setting up fc1_left_eye_coordinate
I0331 00:28:49.909724 11408 net.cpp:148] Top shape: 128 512 (65536)
I0331 00:28:49.909726 11408 net.cpp:156] Memory required for data: 735391772
I0331 00:28:49.909734 11408 layer_factory.hpp:77] Creating layer drop1_left_eye_coordinate
I0331 00:28:49.909741 11408 net.cpp:91] Creating Layer drop1_left_eye_coordinate
I0331 00:28:49.909745 11408 net.cpp:425] drop1_left_eye_coordinate <- fc1_left_eye_coordinate
I0331 00:28:49.909750 11408 net.cpp:386] drop1_left_eye_coordinate -> fc1_left_eye_coordinate (in-place)
I0331 00:28:49.909767 11408 net.cpp:141] Setting up drop1_left_eye_coordinate
I0331 00:28:49.909772 11408 net.cpp:148] Top shape: 128 512 (65536)
I0331 00:28:49.909785 11408 net.cpp:156] Memory required for data: 735653916
I0331 00:28:49.909788 11408 layer_factory.hpp:77] Creating layer fc2_left_eye_coordinate
I0331 00:28:49.909795 11408 net.cpp:91] Creating Layer fc2_left_eye_coordinate
I0331 00:28:49.909799 11408 net.cpp:425] fc2_left_eye_coordinate <- fc1_left_eye_coordinate
I0331 00:28:49.909803 11408 net.cpp:399] fc2_left_eye_coordinate -> fc2_left_eye_coordinate
I0331 00:28:49.909890 11408 net.cpp:141] Setting up fc2_left_eye_coordinate
I0331 00:28:49.909896 11408 net.cpp:148] Top shape: 128 2 (256)
I0331 00:28:49.909899 11408 net.cpp:156] Memory required for data: 735654940
I0331 00:28:49.909904 11408 layer_factory.hpp:77] Creating layer loss_left_eye_coordinate
I0331 00:28:49.909909 11408 net.cpp:91] Creating Layer loss_left_eye_coordinate
I0331 00:28:49.909911 11408 net.cpp:425] loss_left_eye_coordinate <- fc2_left_eye_coordinate
I0331 00:28:49.909915 11408 net.cpp:425] loss_left_eye_coordinate <- left_eye
I0331 00:28:49.909920 11408 net.cpp:399] loss_left_eye_coordinate -> loss_left_eye_coordinate
I0331 00:28:49.909946 11408 net.cpp:141] Setting up loss_left_eye_coordinate
I0331 00:28:49.909951 11408 net.cpp:148] Top shape: (1)
I0331 00:28:49.909953 11408 net.cpp:151]     with loss weight 1
I0331 00:28:49.909961 11408 net.cpp:156] Memory required for data: 735654944
I0331 00:28:49.909963 11408 layer_factory.hpp:77] Creating layer fc1_right_eye_coordinate
I0331 00:28:49.909968 11408 net.cpp:91] Creating Layer fc1_right_eye_coordinate
I0331 00:28:49.909973 11408 net.cpp:425] fc1_right_eye_coordinate <- conv5_relu5_0_split_8
I0331 00:28:49.909977 11408 net.cpp:399] fc1_right_eye_coordinate -> fc1_right_eye_coordinate
I0331 00:28:49.916594 11408 net.cpp:141] Setting up fc1_right_eye_coordinate
I0331 00:28:49.916613 11408 net.cpp:148] Top shape: 128 512 (65536)
I0331 00:28:49.916616 11408 net.cpp:156] Memory required for data: 735917088
I0331 00:28:49.916632 11408 layer_factory.hpp:77] Creating layer drop1_right_eye_coordinate
I0331 00:28:49.916642 11408 net.cpp:91] Creating Layer drop1_right_eye_coordinate
I0331 00:28:49.916646 11408 net.cpp:425] drop1_right_eye_coordinate <- fc1_right_eye_coordinate
I0331 00:28:49.916653 11408 net.cpp:386] drop1_right_eye_coordinate -> fc1_right_eye_coordinate (in-place)
I0331 00:28:49.916681 11408 net.cpp:141] Setting up drop1_right_eye_coordinate
I0331 00:28:49.916684 11408 net.cpp:148] Top shape: 128 512 (65536)
I0331 00:28:49.916687 11408 net.cpp:156] Memory required for data: 736179232
I0331 00:28:49.916689 11408 layer_factory.hpp:77] Creating layer fc2_right_eye_coordinate
I0331 00:28:49.916693 11408 net.cpp:91] Creating Layer fc2_right_eye_coordinate
I0331 00:28:49.916697 11408 net.cpp:425] fc2_right_eye_coordinate <- fc1_right_eye_coordinate
I0331 00:28:49.916702 11408 net.cpp:399] fc2_right_eye_coordinate -> fc2_right_eye_coordinate
I0331 00:28:49.916788 11408 net.cpp:141] Setting up fc2_right_eye_coordinate
I0331 00:28:49.916793 11408 net.cpp:148] Top shape: 128 2 (256)
I0331 00:28:49.916795 11408 net.cpp:156] Memory required for data: 736180256
I0331 00:28:49.916800 11408 layer_factory.hpp:77] Creating layer loss_right_eye_coordinate
I0331 00:28:49.916805 11408 net.cpp:91] Creating Layer loss_right_eye_coordinate
I0331 00:28:49.916807 11408 net.cpp:425] loss_right_eye_coordinate <- fc2_right_eye_coordinate
I0331 00:28:49.916811 11408 net.cpp:425] loss_right_eye_coordinate <- right_eye
I0331 00:28:49.916815 11408 net.cpp:399] loss_right_eye_coordinate -> loss_right_eye_coordinate
I0331 00:28:49.916842 11408 net.cpp:141] Setting up loss_right_eye_coordinate
I0331 00:28:49.916846 11408 net.cpp:148] Top shape: (1)
I0331 00:28:49.916848 11408 net.cpp:151]     with loss weight 1
I0331 00:28:49.916856 11408 net.cpp:156] Memory required for data: 736180260
I0331 00:28:49.916858 11408 layer_factory.hpp:77] Creating layer fc1_nose_coordinate
I0331 00:28:49.916863 11408 net.cpp:91] Creating Layer fc1_nose_coordinate
I0331 00:28:49.916867 11408 net.cpp:425] fc1_nose_coordinate <- conv5_relu5_0_split_9
I0331 00:28:49.916883 11408 net.cpp:399] fc1_nose_coordinate -> fc1_nose_coordinate
I0331 00:28:49.923341 11408 net.cpp:141] Setting up fc1_nose_coordinate
I0331 00:28:49.923354 11408 net.cpp:148] Top shape: 128 512 (65536)
I0331 00:28:49.923357 11408 net.cpp:156] Memory required for data: 736442404
I0331 00:28:49.923362 11408 layer_factory.hpp:77] Creating layer drop1_nose_coordinate
I0331 00:28:49.923368 11408 net.cpp:91] Creating Layer drop1_nose_coordinate
I0331 00:28:49.923372 11408 net.cpp:425] drop1_nose_coordinate <- fc1_nose_coordinate
I0331 00:28:49.923378 11408 net.cpp:386] drop1_nose_coordinate -> fc1_nose_coordinate (in-place)
I0331 00:28:49.923394 11408 net.cpp:141] Setting up drop1_nose_coordinate
I0331 00:28:49.923398 11408 net.cpp:148] Top shape: 128 512 (65536)
I0331 00:28:49.923401 11408 net.cpp:156] Memory required for data: 736704548
I0331 00:28:49.923403 11408 layer_factory.hpp:77] Creating layer fc2_nose_coordinate
I0331 00:28:49.923408 11408 net.cpp:91] Creating Layer fc2_nose_coordinate
I0331 00:28:49.923411 11408 net.cpp:425] fc2_nose_coordinate <- fc1_nose_coordinate
I0331 00:28:49.923418 11408 net.cpp:399] fc2_nose_coordinate -> fc2_nose_coordinate
I0331 00:28:49.923499 11408 net.cpp:141] Setting up fc2_nose_coordinate
I0331 00:28:49.923504 11408 net.cpp:148] Top shape: 128 2 (256)
I0331 00:28:49.923506 11408 net.cpp:156] Memory required for data: 736705572
I0331 00:28:49.923511 11408 layer_factory.hpp:77] Creating layer loss_nose_coordinate
I0331 00:28:49.923516 11408 net.cpp:91] Creating Layer loss_nose_coordinate
I0331 00:28:49.923518 11408 net.cpp:425] loss_nose_coordinate <- fc2_nose_coordinate
I0331 00:28:49.923521 11408 net.cpp:425] loss_nose_coordinate <- nose
I0331 00:28:49.923526 11408 net.cpp:399] loss_nose_coordinate -> loss_nose_coordinate
I0331 00:28:49.923548 11408 net.cpp:141] Setting up loss_nose_coordinate
I0331 00:28:49.923552 11408 net.cpp:148] Top shape: (1)
I0331 00:28:49.923554 11408 net.cpp:151]     with loss weight 1
I0331 00:28:49.923563 11408 net.cpp:156] Memory required for data: 736705576
I0331 00:28:49.923564 11408 layer_factory.hpp:77] Creating layer fc1_left_mouth_coordinate
I0331 00:28:49.923570 11408 net.cpp:91] Creating Layer fc1_left_mouth_coordinate
I0331 00:28:49.923573 11408 net.cpp:425] fc1_left_mouth_coordinate <- conv5_relu5_0_split_10
I0331 00:28:49.923578 11408 net.cpp:399] fc1_left_mouth_coordinate -> fc1_left_mouth_coordinate
I0331 00:28:49.929694 11408 net.cpp:141] Setting up fc1_left_mouth_coordinate
I0331 00:28:49.929708 11408 net.cpp:148] Top shape: 128 512 (65536)
I0331 00:28:49.929709 11408 net.cpp:156] Memory required for data: 736967720
I0331 00:28:49.929715 11408 layer_factory.hpp:77] Creating layer drop1_left_mouth_coordinate
I0331 00:28:49.929730 11408 net.cpp:91] Creating Layer drop1_left_mouth_coordinate
I0331 00:28:49.929734 11408 net.cpp:425] drop1_left_mouth_coordinate <- fc1_left_mouth_coordinate
I0331 00:28:49.929738 11408 net.cpp:386] drop1_left_mouth_coordinate -> fc1_left_mouth_coordinate (in-place)
I0331 00:28:49.929754 11408 net.cpp:141] Setting up drop1_left_mouth_coordinate
I0331 00:28:49.929759 11408 net.cpp:148] Top shape: 128 512 (65536)
I0331 00:28:49.929761 11408 net.cpp:156] Memory required for data: 737229864
I0331 00:28:49.929764 11408 layer_factory.hpp:77] Creating layer fc2_left_mouth_coordinate
I0331 00:28:49.929767 11408 net.cpp:91] Creating Layer fc2_left_mouth_coordinate
I0331 00:28:49.929770 11408 net.cpp:425] fc2_left_mouth_coordinate <- fc1_left_mouth_coordinate
I0331 00:28:49.929775 11408 net.cpp:399] fc2_left_mouth_coordinate -> fc2_left_mouth_coordinate
I0331 00:28:49.929847 11408 net.cpp:141] Setting up fc2_left_mouth_coordinate
I0331 00:28:49.929852 11408 net.cpp:148] Top shape: 128 2 (256)
I0331 00:28:49.929854 11408 net.cpp:156] Memory required for data: 737230888
I0331 00:28:49.929857 11408 layer_factory.hpp:77] Creating layer loss_left_mouth_coordinate
I0331 00:28:49.929862 11408 net.cpp:91] Creating Layer loss_left_mouth_coordinate
I0331 00:28:49.929864 11408 net.cpp:425] loss_left_mouth_coordinate <- fc2_left_mouth_coordinate
I0331 00:28:49.929879 11408 net.cpp:425] loss_left_mouth_coordinate <- left_mouth
I0331 00:28:49.929884 11408 net.cpp:399] loss_left_mouth_coordinate -> loss_left_mouth_coordinate
I0331 00:28:49.929908 11408 net.cpp:141] Setting up loss_left_mouth_coordinate
I0331 00:28:49.929911 11408 net.cpp:148] Top shape: (1)
I0331 00:28:49.929913 11408 net.cpp:151]     with loss weight 1
I0331 00:28:49.929919 11408 net.cpp:156] Memory required for data: 737230892
I0331 00:28:49.929920 11408 layer_factory.hpp:77] Creating layer fc1_right_mouth_coordinate
I0331 00:28:49.929925 11408 net.cpp:91] Creating Layer fc1_right_mouth_coordinate
I0331 00:28:49.929929 11408 net.cpp:425] fc1_right_mouth_coordinate <- conv5_relu5_0_split_11
I0331 00:28:49.929934 11408 net.cpp:399] fc1_right_mouth_coordinate -> fc1_right_mouth_coordinate
I0331 00:28:49.935825 11408 net.cpp:141] Setting up fc1_right_mouth_coordinate
I0331 00:28:49.935838 11408 net.cpp:148] Top shape: 128 512 (65536)
I0331 00:28:49.935840 11408 net.cpp:156] Memory required for data: 737493036
I0331 00:28:49.935847 11408 layer_factory.hpp:77] Creating layer drop1_right_mouth_coordinate
I0331 00:28:49.935853 11408 net.cpp:91] Creating Layer drop1_right_mouth_coordinate
I0331 00:28:49.935856 11408 net.cpp:425] drop1_right_mouth_coordinate <- fc1_right_mouth_coordinate
I0331 00:28:49.935863 11408 net.cpp:386] drop1_right_mouth_coordinate -> fc1_right_mouth_coordinate (in-place)
I0331 00:28:49.935879 11408 net.cpp:141] Setting up drop1_right_mouth_coordinate
I0331 00:28:49.935883 11408 net.cpp:148] Top shape: 128 512 (65536)
I0331 00:28:49.935885 11408 net.cpp:156] Memory required for data: 737755180
I0331 00:28:49.935889 11408 layer_factory.hpp:77] Creating layer fc2_right_mouth_coordinate
I0331 00:28:49.935892 11408 net.cpp:91] Creating Layer fc2_right_mouth_coordinate
I0331 00:28:49.935894 11408 net.cpp:425] fc2_right_mouth_coordinate <- fc1_right_mouth_coordinate
I0331 00:28:49.935900 11408 net.cpp:399] fc2_right_mouth_coordinate -> fc2_right_mouth_coordinate
I0331 00:28:49.935979 11408 net.cpp:141] Setting up fc2_right_mouth_coordinate
I0331 00:28:49.935983 11408 net.cpp:148] Top shape: 128 2 (256)
I0331 00:28:49.935986 11408 net.cpp:156] Memory required for data: 737756204
I0331 00:28:49.935988 11408 layer_factory.hpp:77] Creating layer loss_right_mouth_coordinate
I0331 00:28:49.935993 11408 net.cpp:91] Creating Layer loss_right_mouth_coordinate
I0331 00:28:49.935997 11408 net.cpp:425] loss_right_mouth_coordinate <- fc2_right_mouth_coordinate
I0331 00:28:49.935999 11408 net.cpp:425] loss_right_mouth_coordinate <- right_mouth
…
